kdd-backdooor/run_arxiv/model_weights.pth (torch, 268039 bytes, 6 tensors)

layers.0.weight f4 [128, 128]
-0.15851036 0.043474983 -0.23961844 -0.20862974 0.066437624 -0.17839257 -0.13286862 -0.2482963
0.10258596 0.12942915 0.072824195 -0.0829041 0.0719112 0.04314831 -0.21669526 0.21874692
-0.097014815 0.19648619 0.15339811 -0.20152885 -0.22697483 0.16974826 -0.20501077 0.123874
-0.087351836 0.20947258 0.13058527 -0.18183494 -0.098448776 0.22460994 -0.13365518 0.057541046
-0.23647465 0.100351326 0.21001458 -0.18090631 -0.08291883 0.17979312 0.09696075 0.18517996
0.089170985 -0.22669482 0.14738041 -0.07299345 0.08804997 0.13233107 0.19282083 -0.113937624
0.08910389 0.2039349 0.11585737 0.18322936 -0.19490114 -0.100526474 -0.18013006 0.23874654
-0.16463612 -0.22676082 0.20025699 -0.12854798 0.1366061 -0.12593383 0.09824391 -0.20480719
-0.21391088 0.19335271 -0.16367045 0.2023548 0.21916372 -0.08322462 -0.102943994 -0.2147376
0.2226699 -0.20650683 -0.18665053 -0.11685643 0.108367585 0.11035341 0.20284888 -0.1343529
-0.10756782 0.076233365 0.14494352 -0.2191369 0.122643776 0.16365775 -0.11899127 0.19090708
0.22037284 0.08435307 0.15852632 -0.19829834 0.21765853 -0.24274436 -0.1379811 0.12617089
-0.1503253 0.2153996 0.095354326 -0.18899953 -0.07907831 0.23972069 -0.18171424 -0.14109772
0.08747221 0.19991234 -0.20896284 0.095055945 0.11036574 0.06683083 -0.113492474 -0.13717525
0.07975507 0.13221171 0.1652797 0.111824885 0.08356472 0.2331085 -0.09910263 -0.080077626
-0.2354474 -0.15689926 0.22131088 -0.21208803 0.10187338 0.20503724 -0.124237195 -0.14332603
0.027240839 -0.0017946503 0.06827726 -0.022754109 -0.02134864 -0.00026792407 0.0055623967 0.054013155
0.0028336304 -0.035150852 0.00023644017 0.036540676 -0.06083112 -0.028607106 0.12800464 -0.006611239
-0.0041855373 -0.034247205 -0.026581962 -0.020978797 0.10887082 0.010192353 0.10500421 -0.036971256
-0.008469467 -0.08128472 -0.07091245 0.09066839 -0.00068646105 -0.033058114 0.07649409 0.009536295
0.047305126 -0.021473635 -0.030890431 0.11455353 -0.0013198891 0.0050621545 -0.030056534 -0.046890013
-0.08243852 -0.0030831285 -0.1037399 0.08449133 -0.05361171 0.008692793 -0.116250746 0.029370645
-0.061197583 -0.018712752 0.013079744 0.0013194983 0.044788778 0.0176203 0.101448074 0.00761409
0.016298858 0.088036664 -7.3645584e-05 0.008772605 -0.020756243 0.00081569934 0.011299962 0.05533608
-0.0154737765 0.014063363 0.09503135 -0.045287542 -0.07807622 -0.015504066 0.03766715 0.08415378
-0.03639949 0.11884294 0.023563677 0.044533756 -0.012090082 0.022524025 -0.001787032 0.026454935
0.060401052 -0.052456588 -0.11800071 0.11602644 -0.069465876 -0.060945038 0.07259712 -0.03267842
-0.09527141 -0.043732885 -0.11244043 -0.0067975153 -0.0636728 0.006559504 0.046211757 0.014332913
0.07561692 -0.010377016 -0.09026264 -0.0038294727 -0.0058776014 -0.13065551 0.06034905 0.0018625072
-0.06629583 -0.012507446 -0.0022108604 -0.066969775 -0.020317694 -0.07984102 0.046811193 -0.01972314
-0.0066345194 -0.027449619 0.012175312 -0.020683063 -0.036969498 -0.024513569 0.039900057 -0.0010392278
0.06969428 0.06786443 -0.018483458 0.029634418 -0.018629061 -0.04145424 0.043179803 0.0058945287
00000000: 8a50 22be d312 323d 895e 75be 09a3 55be
00000010: 7310 883d 8bac 36be b60e 08be 6341 7ebe
00000020: 9618 d23d 1389 043e da24 953d a0c9 a9bd
00000030: 2e46 933d 48bc 303d 5de5 5dbe 31ff 5f3e
00000040: b4af c6bd ad33 493e 6514 1d3e 945d 4ebe
00000050: 176c 68be 7dd2 2d3e 58ee 51be a7b1 fd3d
00000060: 85e5 b2bd fb7f 563e 25b8 053e f032 3abe
00000070: 839f c9bd 2600 663e e7dc 08be 29b0 6b3d
00000080: 6926 72be ff84 cd3d 100e 573e 813f 39be
00000090: 59d1 a9bd b01b 383e 5c93 c63d d19f 3d3e
000000a0: 479f b63d b022 68be e4ea 163e 977d 95bd
000000b0: 8b53 b43d cc81 073e d372 453e 2158 e9bd
000000c0: 1a7c b63d 4fd4 503e a146 ed3d 7aa0 3b3e
000000d0: 2a94 47be d3e0 cdbd 0474 38be f979 743e
000000e0: 5f96 28be fd33 68be 2b10 4d3e 15a2 03be
000000f0: 78e2 0b3e ccf4 00be 1a34 c93d fab8 51be
00000100: 740b 5bbe 41fe 453e 3a99 27be 1936 4f3e
00000110: 746c 603e ab71 aabd 4dd4 d2bd 2ce4 5bbe
00000120: 9403 643e 8776 53be 5121 3fbe 6d52 efbd
00000130: d3ef dd3d f800 e23d 9eb7 4f3e ce93 09be
00000140: 844c dcbd 3d20 9c3d 136c 143e 6c65 60be
00000150: a92c fb3d e695 273e b2b1 f3bd 257d 433e
00000160: 6ba9 613e 4dc1 ac3d b954 223e b80e 4bbe
00000170: e1e1 5e3e fa91 78be eb4a 0dbe f132 013e
00000180: e0ee 19be b691 5c3e 2149 c33d 1889 41be
00000190: cff3 a1bd 5779 753e 4c13 3abe ec7b 10be
000001a0: a124 b33d d2b5 4c3e 5bfa 55be b1ac c23d
000001b0: 6f07 e23d 9ade 883d be6e e8bd ab77 0cbe
000001c0: a056 a33d 8262 073e 153f 293e 7204 e53d
000001d0: fb23 ab3d ffb3 6e3e 52f6 cabd bdff a3bd
000001e0: 2019 71be 33aa 20be 529f 623e 9b2d 59be
000001f0: fea2 d03d 48f5 513e 1270 febd 0fc4 12be
00000200: 2e28 df3c 793a ebba f3d4 8b3d d366 babc
00000210: 58e3 aebc 2978 8cb9 c444 b63b e63c 5d3d
00000220: 6eb4 393b 57fa 0fbd edec 7739 adab 153d
00000230: 0d2a 79bd 7359 eabc a613 033e 18a3 d8bb
00000240: d526 89bb cc46 0cbd 6ac2 d9bc badb abbc
00000250: aaf7 de3d d4fd 263c 720c d73d 2c6f 17bd
00000260: 85c3 0abc 9a78 a6bd 8c3a 91bd 59b0 b93d
00000270: 9ff3 33ba f267 07bd efa8 9c3d 1f3e 1c3c
00000280: 05c3 413d 7ae9 afbc ee0d fdbc 0b9b ea3d
00000290: 2100 adba 6ee0 a53b 1f39 f6bc be0f 40bd
000002a0: 87d5 a8bd 500e 4abb 9675 d4bd ca09 ad3d
000002b0: f497 5bbd 376c 0e3c df14 eebd b59a f03c
000002c0: 51aa 7abd 7c4b 99bc 6c4c 563c 04f3 ac3a
000002d0: 7074 373d 7358 903c 02c4 cf3d 9e7f f93b
000002e0: 2f85 853c 914c b43d 2c72 9ab8 f9ba 0f3c
000002f0: ff08 aabc a8d4 553a 7a23 393c 16a8 623d
00000300: b985 7dbc 056a 663c cc9f c23d 6e7f 39bd
00000310: 6de6 9fbd c404 7ebc df48 1a3d d158 ac3d
00000320: a217 15bd ed63 f33d 9d08 c13c 0769 363d
00000330: 7b15 46bc 4e84 b83c d83a eaba 05b8 d83c
00000340: 1867 773d b8dc 56bd 5baa f1bd 459f ed3d
00000350: 2044 8ebd 81a1 79bd cdad 943d cfd9 05bd
00000360: a81d c3bd 4121 33bd 2b47 e6bd b1bd debb
00000370: e366 82bd 1cf1 d63b 8a48 3d3d 98d4 6a3c
00000380: 0bdd 9a3d 5c04 2abc 9edb b8bd e4f7 7abb
00000390: e598 c0bb 8fca 05be 9130 773d 5f1f f43a
000003a0: 1cc6 87bd 08ec 4cbc 15e4 10bb 7327 89bd
000003b0: 4b71 a6bc b083 a3bd 18bd 3f3d 6c92 a1bc
000003c0: 6266 d9bb 06de e0bc f67a 473c 876f a9bc
000003d0: 546d 17bd aed0 c8bc 3e6e 233d b336 88ba
000003e0: e0bb 8e3d 82fc 8a3d 9f6a 97bc e1c3 f23c
000003f0: f99b 98bc eccb 29bd 4edd 303d e426 c13b

layers.0.bias f4 [128]
0.11455681 -0.034607153 0.005977473 -0.03555482 0.0030270843 0.16432863 0.020059567 0.14312874
0.19252548 -0.013030448 0.023621509 -0.036582883 -0.0048393677 0.1086994 -0.11540726 0.19249298
-0.06936682 -0.025437355 0.20621881 0.08894036 0.21230718 -0.12103828 0.2143365 -0.017510721
0.06138594 -0.016181104 -0.049819715 -0.059407804 0.1782573 0.19135594 0.15477231 -0.018682834
-0.052451294 0.1444485 0.103303224 0.22489767 0.14663911 -0.08156198 0.09117339 0.12643906
-0.03324471 0.07162488 -0.122778304 0.12393938 0.17652532 0.06869065 0.14575477 -0.037898514
0.15703459 -0.010742101 -0.07878476 0.16817552 0.16815527 0.12723061 0.1641324 0.016541762
0.13647576 0.09246483 0.14200415 -0.019746399 -0.088333756 -0.10003018 -0.024657972 0.21814416
-0.061514515 0.18625553 0.12509069 0.014216919 0.13409992 -0.093274735 0.08892957 0.15981138
0.16505839 -0.04055233 0.06823546 0.035796903 -0.00073173083 0.2025228 -0.026109602 0.14902388
0.17270534 0.013991047 -0.011671669 0.19243804 0.00814452 0.24132366 0.1414127 0.124998264
0.07612835 0.20240167 0.07311718 0.20119986 0.15860526 0.06867211 0.2125327 0.10887835
0.2037765 0.16910024 0.114196934 -0.12142394 -0.028504184 -0.052804258 -0.014536591 0.17270751
-0.112094395 -0.0843777 -0.1305937 0.19893321 0.09502958 -0.07256051 0.0854212 0.1288133
0.06974269 -0.013619276 0.045270532 0.16556405 -0.03329002 0.28489116 0.0115000205 0.06977297
0.14365202 0.21553308 -0.14241926 0.15128481 0.15158728 -0.010613833 0.19746137 0.14872962
00000000: c39c ea3d 3bc0 0dbd aede c33b eea1 11bd
00000010: 0c62 463b c445 283e f653 a43c 5790 123e
00000020: 6625 453e a97d 55bc e581 c13c efd7 15bd
00000030: 8f93 9ebb cb9d de3d a45a ecbd e11c 453e
00000040: 3110 8ebd 0062 d0bc 062b 533e 5d26 b63d
00000050: 0e67 593e ebe2 f7bd 077b 5b3e a572 8fbc
00000060: d36f 7b3d 3c8e 84bc c20f 4cbd 9955 73bd
00000070: 1589 363e d0f2 433e a27c 1e3e be0c 99bc
00000080: 2bd7 56bd 4fea 133e a490 d33d 934b 663e
00000090: 9028 163e f809 a7bd 1db9 ba3d 3e79 013e
000000a0: 9b2b 08bd 11b0 923d 3173 fbbd eed3 fd3d
000000b0: 0ec3 343e afad 8c3d bd40 153e 793b 1bbd
000000c0: adcd 203e a3ff 2fbc e759 a1bd 3436 2c3e
000000d0: e530 2c3e be48 023e 5312 283e 9782 873c
000000e0: 4dc0 0b3e 335e bd3d 8969 113e 33c3 a1bc
000000f0: 54e8 b4bd 9fdc ccbd 84ff c9bc 2f61 5f3e
00000100: a5f6 7bbd c5b9 3e3e c617 003e 15ee 683c
00000110: 7d51 093e d306 bfbd b520 b63d 98a5 233e
00000120: 1105 293e 331a 26bd 08bf 8b3d c69f 123d
00000130: a0d1 3fba 2362 4f3e cee3 d5bc b799 183e
00000140: abd9 303e b43a 653c 873a 3fbc 7a0e 453e
00000150: 9870 053c 8d1d 773e 7ece 103e 17ff ff3d
00000160: 2ee9 9b3d 6242 4f3e 76be 953d 5607 4e3e
00000170: 6b69 223e f7a3 8c3d 2ca2 593e 9dfb de3d
00000180: c9aa 503e 9d28 2d3e 15e0 e93d 1dad f8bd
00000190: 9b81 e9bc 4749 58bd e22a 6ebc 3dda 303e
000001a0: bf91 e5bd 37ce acbd 5bba 05be 26b5 4b3e
000001b0: de9e c23d 9b9a 94bd 4ff1 ae3d a2e7 033e
000001c0: 41d5 8e3d 6223 5fbc 986d 393d 9f89 293e
000001d0: 1e5b 08bd 41dd 913e 956a 3c3c 22e5 8e3d
000001e0: 8419 133e b4b4 5c3e 5bd6 11be 68ea 1a3e
000001f0: b239 1b3e a4e5 2dbc 5033 4a3e 944c 183e

feat.weight f4 [384, 128]
-0.10732984 -0.04048301 -0.08507117 -0.017141692 -0.007366867 -0.08022242 -0.025664596 -0.13219658
-0.06867981 0.00075029215 -1.8370263e-05 0.0013662609 -0.0926528 -0.057948373 -0.08385509 -0.068845086
-0.09757499 -0.04372143 -0.17071861 -0.14497483 -0.13827182 0.001363928 -0.09671287 0.0005540451
-0.081222944 -0.00017238127 -0.014640783 0.007763987 -0.14798164 -0.1340641 -0.20677797 -0.10369482
0.012494656 -0.15244623 -0.13645776 -0.07697025 -0.18976438 -0.12800846 -0.19419739 -0.09505779
-0.042073943 -0.22906952 -0.0017015215 -0.21085066 -0.16388491 -0.180524 -0.09675428 -0.009031537
-0.0933393 -0.017859593 0.0010332706 -0.11523122 -0.14376973 -0.22137107 -0.11166592 -0.05721359
-0.13275804 -0.21350351 -0.14590496 -0.0005931674 0.0017191092 -0.024754617 -0.05090483 -0.21586467
-0.067657545 -0.18623486 -0.17261147 0.00073412835 -0.1473776 -0.007638608 -0.10268103 -0.07460643
-0.17283005 -0.020841455 -0.15483437 -0.05847101 -0.0008431338 -0.13336815 0.0005263658 -0.16990447
-0.17216422 -0.0014084465 -0.008407121 -0.18210548 0.013124528 -0.11557872 -0.13368954 -0.19668636
-0.1492915 -0.20711404 -0.21577828 -0.09510472 -0.13647158 -0.20382728 -0.21927425 -0.1685904
-0.13407686 -0.10876286 -0.20393167 0.004731017 -0.0009800509 -0.0010070713 -0.13194528 -0.059806015
-0.00016897322 0.001028537 0.0059097153 -0.12055609 -0.09260963 0.015506636 -0.16038333 -0.12996349
-0.12206933 -0.050575137 -0.056253713 -0.17486408 -0.052361976 -0.22060864 0.012651111 -0.11526182
-0.22874095 -0.12726025 -0.09146419 -0.11343903 -0.12641253 0.0009733279 -0.17907718 -0.20442893
-0.095185585 -0.0009820961 -0.006302445 0.00089007564 0.008549114 -0.19602945 -0.089948684 -0.062075563
-0.19954938 6.96665e-05 -0.00059341756 0.0010492161 -0.087016895 -0.039953597 -0.010885403 -0.059339643
-0.037249696 -0.08426958 -0.22317046 -0.18498221 -0.07778817 -0.0012741281 -0.13280915 -4.564547e-05
-0.12523587 -0.00075268134 0.00039064116 -0.076293446 -0.202723 -0.2259757 -0.05125888 -0.03701028
-0.0065663722 -0.21776897 -0.04937348 -0.081123 -0.2001169 -0.034224026 -0.11369607 -0.044272188
-0.008353461 -0.12397833 0.00111527 -0.075235404 -0.046859052 -0.09543743 -0.08349536 -0.0019385401
-0.08520586 -0.02449994 0.0005105735 -0.1174261 -0.10445593 -0.18843657 -0.18859218 -0.047474552
-0.104008414 -0.20975918 -0.08978633 -0.00053548795 -0.000263519 -0.07746422 -0.03205308 -0.16572858
0.011694098 -0.13680981 -0.10486867 -0.00042997114 -0.09008364 -0.0012175873 -0.16963981 -0.11839776
-0.048774563 -0.039786085 -0.17318979 0.0014956653 -0.0007971547 -0.17340314 -0.00030449644 -0.14336368
-0.17974544 -0.0007144392 -0.0003561408 -0.1698382 -0.008572754 -0.11596254 -0.052208103 -0.055989582
-0.10521108 -0.124873646 -0.06963791 -0.15518163 -0.079994135 -0.1156482 -0.12293796 -0.101106554
-0.117048845 -0.19175456 -0.17965561 -9.089208e-06 -4.1548414e-05 0.00050717127 0.0060921838 -0.037675478
0.0009522728 -0.0005231802 -0.032949667 -0.12544772 -0.09202869 -0.039215673 -0.16498801 -0.19832265
-0.1716503 -0.05098996 -0.1302418 -0.14027391 -0.07583956 -0.18716879 -0.07933421 -0.08494963
-0.1910236 -0.12623838 0.011516702 -0.14002758 -0.1464758 0.0002167211 -0.15293202 -0.06833741
00000000: bfcf dbbd 83d1 25bd cb39 aebd bc6c 8cbc
00000010: c265 f1bb a74b a4bd 8f3e d2bc 8a5e 07be
00000020: 00a8 8cbd 41af 443a d719 9ab7 1c14 b33a
00000030: c0c0 bdbd 465b 6dbd 38bc abbd a7fe 8cbd
00000040: 65d5 c7bd 3e15 33bd dcd0 2ebe 4874 14be
00000050: 2197 0dbe d4c5 b23a 6611 c6bd 563d 113a
00000060: 3758 a6bd 3fc1 34b9 e5df 6fbc 0b69 fe3b
00000070: 8088 17be 1948 09be 9bbd 53be f35d d4bd
00000080: 63b6 4c3c dd1a 1cbe 95bb 0bbe 94a2 9dbd
00000090: 9851 42be a614 03be aedb 46be a9ad c2bd
000000a0: ba55 2cbd 3391 6abe 9605 dfba 3ce9 57be
000000b0: 72d1 27be 49db 38be 1c27 c6bd 03f9 13bc
000000c0: ad28 bfbd 484e 92bc cf6e 873a 59fe ebbd
000000d0: 5f38 13be 19af 62be 1ab1 e4bd cc58 6abd
000000e0: b9f1 07be aaa0 5abe 1c68 15be ca7e 1bba
000000f0: bc53 e13a 32ca cabc 9581 50bd a10b 5dbe
00000100: 0a90 8abd 5ab4 3ebe 10c1 30be 8572 403a
00000110: 27ea 16be 4a4d fabb 6f4a d2bd 42cb 98bd
00000120: 5cfa 30be b3bb aabc e78c 1ebe 4c7f 6fbd
00000130: c005 5dba a991 08be d0fb 093a 70fb 2dbe
00000140: d14b 30be 9f9b b8ba 05be 09bc dc79 3abe
00000150: 4308 573c 89b4 ecbd e9e5 08be 2668 49be
00000160: dfdf 18be b415 54be fbf4 5cbe 43c6 c2bd
00000170: 35bf 0bbe 19b8 50be 6e89 60be f6a2 2cbe
00000180: 724b 09be 10bf debd 77d3 50be a606 9b3b
00000190: 0d75 80ba b5ff 83ba aa1c 07be 27f7 74bd
000001a0: 672e 31b9 facf 863a 49a6 c13b 1ce6 f6bd
000001b0: 1eaa bdbd 8c0f 7e3c 873b 24be 2615 05be
000001c0: 7cff f9bd e027 4fbd 4b6a 66bd 920f 33be
000001d0: 8379 56bd 3be7 61be 9b46 4f3c 640e ecbd
000001e0: 113b 6abe 8350 02be 9451 bbbd b952 e8bd
000001f0: 4972 01be ee26 7f3a 0260 37be d155 51be
00000200: a9f0 c2bd adb9 80ba be84 cebb f753 693a
00000210: 9511 0c3c f2bb 48be 0437 b8bd f242 7ebd
00000220: ac56 4cbe eb19 9238 948f 1bba da85 893a
00000230: ea35 b2bd 62a6 23bd b058 32bc 200e 73bd
00000240: 2393 18bd 8895 acbd cc86 64be fa6b 3dbe
00000250: 674f 9fbd a500 a7ba 1fff 07be 7373 3fb8
00000260: d53d 00be 974f 45ba f8ce cc39 bd3f 9cbd
00000270: 9e96 4fbe 2d66 67be d5f4 51bd 1798 17bd
00000280: b92a d7bb d4fe 5ebe d93b 4abd d123 a6bd
00000290: 72eb 4cbe 7e2e 0cbd 7cd9 e8bd c156 35bd
000002a0: f4dc 08bc 5ae8 fdbd 402e 923a 0515 9abd
000002b0: 47ef 3fbd b374 c3bd 9eff aabd 9d16 feba
000002c0: 6980 aebd 19b4 c8bc 02d8 053a 187d f0bd
000002d0: feec d5bd 84f5 40be 4f1e 41be ad74 42bd
000002e0: 5d02 d5bd 1ccb 56be e5e1 b7bd fd5f 0cba
000002f0: ec28 8ab9 90a5 9ebd 174a 03bd c1b4 29be
00000300: 9a98 3f3c df17 0cbe 63c5 d6bd c06d e1b9
00000310: c57d b8bd 7397 9fba 0fb6 2dbe 867a f2bd
00000320: d6c7 47bd bcf6 22bd aa58 31be 330a c43a
00000330: 25f8 50ba 9890 31be d2a4 9fb9 eecd 12be
00000340: 300f 38be 3449 3bba 69b8 bab9 11ea 2dbe
00000350: bd74 0cbc c57d edbd 2ad8 55bd 5555 65bd
00000360: e878 d7bd c1bd ffbd 529e 8ebd efe7 1ebe
00000370: f7d3 a3bd f7d8 ecbd e6c6 fbbd f410 cfbd
00000380: 4eb7 efbd 4f5b 44be a4f7 37be da7d 18b7
00000390: 4544 2eb8 b0f3 043a f1a0 c73b 9a51 1abd
000003a0: f2a1 793a 0726 09ba 3bf6 06bd 5e75 00be
000003b0: 8a79 bcbd 9da0 20bd 9ef2 28be 1815 4bbe
000003c0: 19c5 2fbe d9da 50bd 1b5e 05be f7a3 0fbe
000003d0: c551 9bbd 2da9 3fbe f979 a2bd 12fa adbd
000003e0: b19b 43be a244 01be 8db0 3c3c 6463 0fbe
000003f0: c1fd 15be a13f 6339 369a 1cbe 7cf4 8bbd

feat.bias f4 [384]
-0.21632294 -0.03215212 -0.18857276 -0.13218531 -0.14817202 -0.1599301 -0.23136075 -0.11370169
-0.15593131 -0.07200792 -0.20585635 -0.21484058 -0.079293035 -0.121288165 -0.17078859 -0.190717
-0.15450017 0.054766446 -0.06263342 -0.17875814 -0.102785565 -0.046649046 -0.076443814 -0.17903961
-0.079942495 0.10225423 -0.062929146 -0.16814582 -0.108783506 -0.03487759 -0.18616213 -0.08349847
-0.06085793 -0.14413597 0.044803146 -0.15040174 -0.06770043 -0.22916959 -0.1246397 -0.19191067
-0.013311004 -0.21855071 -0.15874745 -0.075804606 -0.14126311 -0.067609064 -0.12295217 -0.13862002
-0.10679778 -0.13951713 -0.0975147 -0.17998135 -0.103721835 -0.11604871 -0.18232378 -0.03700717
-0.1077255 -0.21159358 -0.16026777 -0.07215973 0.17125158 -0.22261849 -0.036121182 -0.21716034
-0.16971077 -0.022742644 -0.12531775 -0.0875193 0.12801701 -0.20087466 -0.0836742 -0.18035685
-0.10433646 -0.17415845 -0.17304099 -0.22204392 -0.06431911 0.17816423 -0.11361788 -0.067193545
-0.09685832 -0.10537842 0.038121816 -0.1590739 -0.10046693 -0.19943187 -0.19960989 -0.031732153
0.15569231 -0.01797761 0.17701274 -0.13819824 -0.19187334 -0.06169852 -0.17173885 -0.1734446
-0.10746898 -0.1473934 -0.031515557 -0.22963375 -0.106532514 0.050853066 -0.16154253 -0.22516808
0.10277101 0.02998052 -0.08786038 -0.12826727 -0.12848869 -0.05545376 -0.20842317 -0.1287378
-0.12637746 -0.10029804 -0.04753877 0.1445805 -0.13765635 -0.20124798 -0.07248139 -0.18490581
-0.15956303 -0.07967982 -0.1319397 -0.15030994 -0.14615943 -0.063769504 -0.06772556 -0.18054882
-0.14568363 -0.050785743 -0.1850436 -0.08489495 -0.18155634 -0.20432988 -0.21461135 -0.20934811
-0.13186397 -0.13069893 -0.20846775 -0.15603928 -0.1615574 -0.08249439 -0.16230017 -0.108297884
-0.09855754 0.05193629 -0.074452184 -0.2274393 -0.2027248 -0.115316465 -0.15721934 -0.0550092
-0.07073079 -0.05618638 -0.01177511 -0.12785807 -0.22155501 -0.08969995 -0.06064981 -0.18737645
-0.113988355 -0.084442556 -0.028405923 -0.17795093 -0.116740346 -0.08455638 -0.16909392 -0.17484683
-0.059095997 -0.1965383 -0.10083262 -0.0915297 -0.052123737 -0.030644188 -0.080748394 -0.21724798
-0.063359976 -0.073116235 -0.11348655 -0.034564346 -0.064641304 -0.22905114 -0.21377277 0.019629316
-0.07107107 -0.12390433 -0.15622157 -0.20557202 0.11790295 -0.12835382 -0.14559563 -0.084042646
-0.088611946 0.023603901 -0.1468976 -0.05294212 0.11204726 -0.076820664 -0.204902 -0.20930849
-0.18264149 -0.1075526 -0.19427599 -0.0661382 -0.09095635 -0.07393466 -0.22775434 -0.22115688
-0.19667597 -0.051026393 0.18714806 -0.08547921 -0.11590762 -0.15005796 -0.21556392 -0.051189803
0.13135824 -0.105611496 0.09518694 -0.19863977 -0.17352112 -0.0666816 -0.115904465 -0.111620605
-0.20403636 -0.046609655 -0.09564732 -0.07960483 -0.10989819 0.081098616 -0.15969677 -0.17371288
0.09767446 -0.0928734 -0.20346937 -0.109402336 -0.18763885 -0.13557021 -0.076099515 -0.12943143
-0.1831128 -0.11842062 -0.008153521 0.20213063 -0.03825331 -0.08347119 -0.10688927 -0.11745907
-0.11571207 -0.20461838 -0.030195808 -0.14199509 -0.09178194 -0.17309783 -0.069810495 -0.08481271
00000000: c383 5dbe f1b1 03bd 3819 41be 965b 07be
00000010: 68ba 17be b7c4 23be d5e9 6cbe 6fdc e8bd
00000020: 75ac 1fbe e378 93bd 02cc 52be 2bff 5bbe
00000030: 6364 a2bd ee65 f8bd 34e3 2ebe 514b 43be
00000040: 4b35 1ebe c852 603d f345 80bd 600c 37be
00000050: 3d81 d2bd 1213 3fbd 938e 9cbd 2956 37be
00000060: e4b8 a3bd aa6a d13d ffe0 80bd 6b2e 2cbe
00000070: e3c9 debd cedb 0ebd 49a1 3ebe 3f01 abbd
00000080: 2a46 79bd 6198 13be 8183 373d ea02 1abe
00000090: 86a6 8abd 6fab 6abe 1943 ffbd 3b84 44be
000000a0: 6616 5abc c2cb 5fbe b18e 22be 723f 9bbd
000000b0: 47a7 10be 9f76 8abd 59ce fbbd 68f2 0dbe
000000c0: cbb8 dabd 94dd 0ebe c9b5 c7bd 084d 38be
000000d0: 1d6c d4bd f2aa edbd 16b3 3abe d594 17bd
000000e0: 309f dcbd fdab 58be 3c1d 24be 7bc8 93bd
000000f0: 935c 2f3e 1af6 63be cef3 13bd 485f 5ebe
00000100: a9c8 2dbe c84e babc 4c53 00be 523d b3bd
00000110: e416 033e 16b2 4dbe 615d abbd 77af 38be
00000120: 5bae d5bd 9856 32be a831 31be 7b5f 63be
00000130: bdb9 83bd af70 363e 7eb0 e8bd c59c 89bd
00000140: a85d c6bd a4d0 d7bd 9f25 1c3d 45e4 22be
00000150: 9bc1 cdbd de37 4cbe 8966 4cbe 93f9 01bd
00000160: ce6d 1f3e c845 93bc d442 353e d783 0dbe
00000170: 727a 44be 96b7 7cbd 4fdc 2fbe 769b 31be
00000180: b218 dcbd 4cee 16be 7516 01bd 1c25 6bbe
00000190: b82d dabd 4e4b 503d 686b 25be 7692 66be
000001a0: 9b79 d23d b599 f53c 25f0 b3bd 7f58 03be
000001b0: 8a92 03be 7b23 63bd e26c 55be d8d3 03be
000001c0: 1869 01be 0f69 cdbd 03b8 42bd e90c 143e
000001d0: c9f5 0cbe f313 4ebe 1f71 94bd f357 3dbe
000001e0: 7e64 23be 2c2f a3bd 331b 07be d9ea 19be
000001f0: d1aa 15be 9699 82bd b3b3 8abd cae1 38be
00000200: 172e 15be b604 50bd 127c 3dbe 67dd adbd
00000210: e8e9 39be da3b 51be 14c3 5bbe 5a5f 56be
00000220: 5907 07be f1d5 05be 9278 55be c3c8 1fbe
00000230: 4e6f 25be d2f2 a8bd 0432 26be 48cb ddbd
00000240: 89d8 c9bd 26bb 543d 637a 98bd d9e5 68be
00000250: 1797 4fbe 0a2b ecbd 1bfe 20be 5451 61bd
00000260: 4edb 90bd b123 66bd 64ec 40bc 3aed 02be
00000270: 51df 62be 9bb4 b7bd ef6b 78bd 9ddf 3fbe
00000280: ba72 e9bd 38f0 acbd 8ab3 e8bc c538 36be
00000290: 9015 efbd e52b adbd f526 2dbe 0c0b 33be
000002a0: a50e 72bd 5641 49be 5581 cebd ec73 bbbd
000002b0: b37f 55bd 8509 fbbc 6a5f a5bd 4176 5ebe
000002c0: e0c2 81bd f7bd 95bd a36b e8bd 5893 0dbd
000002d0: a962 84bd 628c 6abe 40e7 5abe a9cd a03c
000002e0: b68d 91bd 8ec1 fdbd 8cf8 1fbe 7981 52be
000002f0: 1a77 f13d 2f6f 03be 0517 15be 8d1e acbd
00000300: 2e7a b5bd f85c c13c 536c 16be d6d9 58bd
00000310: 0979 e53d 2754 9dbd d4d1 51be f754 56be
00000320: 5f06 3bbe 8a44 dcbd 49f0 46be 7773 87bd
00000330: 5347 babd 0e6b 97bd 6f38 69be f376 62be
00000340: 6d65 49be 0d01 51bd bea3 3f3e b90f afbd
00000350: f960 edbd cba8 19be cabc 5cbe 66ac 51bd
00000360: c682 063e d74a d8bd 5ff1 c23d 3968 4bbe
00000370: 85af 31be 5d90 88bd 525f edbd 5899 e4bd
00000380: e8ee 50be c4e9 3ebd bee2 c3bd db07 a3bd
00000390: 4d12 e1bd 0817 a63d 8d87 23be cae1 31be
000003a0: 8c09 c83d 6934 bebd 465a 50be 550e e0bd
000003b0: 6624 40be ebd2 0abe 10da 9bbd ac89 04be
000003c0: ec81 3bbe 8386 f2bd 5996 05bc 55fb 4e3e
000003d0: 81af 1cbd f1f2 aabd c3e8 dabd 628e f0bd
000003e0: 73fa ecbd 7b87 51be 335d f7bc 2967 11be
000003f0: 2bf8 bbbd 8f40 31be cef8 8ebd 49b2 adbd

edge.weight f4 [3, 128]
-0.050711095 -0.023974981 -0.023668863 0.019901223 -0.0036981825 0.017095566 0.036689267 -0.0060812077
0.062772 0.001275653 -0.042999152 0.0016099899 0.08042937 0.001701682 0.0867315 -0.012136169
0.052964397 0.122022875 0.059948713 0.023150926 0.044408765 0.04134855 -0.081152916 0.012364656
0.051937006 -0.002545004 0.062976904 -0.024397051 0.07138096 -0.08605825 -0.074418776 0.0029662147
-0.016651966 0.07537792 -0.104187876 -0.007164945 0.07253498 0.083460025 -0.04550961 -0.056980122
0.1116601 0.054924704 -0.0016568456 0.061980747 -0.022051722 0.019146618 0.032269865 -0.016071923
0.078306384 0.13847569 0.002113946 0.07442359 -0.09949022 -0.06378452 0.07085242 0.10232988
0.058854323 -0.004201583 -0.07041885 0.031144543 0.061228964 0.07703388 0.06327264 -0.04818615
0.1391235 -0.07094247 0.034200087 0.048852764 0.04684662 -0.008652935 -0.018353267 0.021209132
0.07055762 0.011545503 0.006254275 0.11357364 -0.000860852 0.018751632 -0.0011124865 0.03642397
0.025951726 0.071260825 0.03539239 0.025289899 0.032921534 -0.0665268 0.028358318 -0.0054641347
0.0326538 0.044063233 -0.028642846 -0.09199413 -0.0468666 -0.043630138 -0.049064 0.039664086
0.026911512 -0.041917805 0.049159035 0.06378232 0.026078856 0.002550498 0.060667474 0.06793296
0.005256397 0.0102265 0.1411952 0.013924152 0.04849683 0.10435866 0.041613676 -0.021396255
0.0582376 0.08141914 -0.0756615 0.013469528 -0.01970207 0.03263201 0.06884177 0.046177946
0.038108062 -0.1067147 -0.026344331 -0.017105881 -0.005645088 -0.033941526 -0.04569219 0.04711291
-0.010981 -5.078025e-05 0.1113005 0.1203979 -0.017184732 -0.08188908 0.07051351 0.0033994312
0.008108316 0.0008697378 -0.11903979 0.01449052 0.07663078 -0.039969683 0.06983209 -0.0448062
0.00888408 0.074132554 0.026615709 -0.04898673 -0.052052718 0.13519694 0.024352219 -0.015685895
-0.040556625 -0.00037989026 0.07250979 0.12561284 0.06560817 0.08086396 -0.0712149 -0.024547342
-0.013008003 -0.051322076 0.05874846 -0.024253698 -0.051559985 -0.007310309 -0.050236225 0.063204914
0.013373752 0.027209183 0.009445088 -0.008363026 0.067835405 -0.014540173 0.050135702 0.08094644
-0.07685388 0.09745627 0.0026295132 0.040450085 0.084991984 0.04104038 -0.056352317 0.12331759
-0.0069088354 -0.015470013 -0.06435812 0.011221548 -0.005556555 0.045476038 0.084683254 0.073238574
-0.010257844 0.07125011 0.08177857 -0.024944765 0.05439378 0.015767077 0.06156464 -0.0017425586
0.027060207 0.14620768 0.022669971 0.046905994 0.0017847194 0.06579463 -0.0018963056 -0.0073976177
0.03160424 0.10818633 -0.019684058 -0.06303216 0.0535769 0.007680038 0.018809956 0.02262793
-0.048181932 0.0036743481 0.07191587 -0.088941544 -0.0146627575 0.021448066 -0.041712746 0.05163948
0.03551318 -0.044623643 -0.07325986 0.012851767 0.0022010955 0.023789184 0.09964361 -0.07606332
-0.02034277 0.009490785 0.025938708 -0.06168891 -0.0058580833 0.061225384 0.060458574 -0.013608821
0.031511027 0.02186727 0.013167841 0.03411342 0.0821555 -0.070757054 -0.026647922 0.078197
0.026955262 0.04235563 0.09457195 -0.062468875 0.06651246 -0.0102106705 0.026329683 -0.026189275
00000000: 70b6 4fbd 2e67 c4bc 34e5 c1bc e407 a33c
00000010: 355d 72bb 000c 8c3c 7c47 163d de44 c7bb
00000020: 9b8e 803d d033 a73a e11f 30bd 4c06 d33a
00000030: 27b8 a43d f90a df3a 49a0 b13d c8d6 46bc
00000040: 32f1 583d 21e7 f93d c88c 753d 03a7 bd3c
00000050: f7e5 353d 195d 293d 8033 a6bd 2095 4a3c
00000060: e6bb 543d 15ca 26bb 09fa 803d 53dc c7bc
00000070: 2e30 923d 4f3f b0bd df68 98bd d364 423b
00000080: b469 88bc bd5f 9a3d 7460 d5bd eac7 eabb
00000090: 388d 943d 17ed aa3d 4968 3abd fd63 69bd
000000a0: 0dae e43d baf8 603d 832a d9ba 86df 7d3d
000000b0: d0a5 b4bc 5ed9 9c3c 682d 043d 44a9 83bc
000000c0: 195f a03d 92cc 0d3e 218a 0a3b 656b 983d
000000d0: 87c1 cbbd 75a1 82bd 131b 913d 5492 d13d
000000e0: 3b11 713d 6fad 89bb c237 90bd d722 ff3c
000000f0: 39cb 7a3d f0c3 9d3d 1695 813d d75e 45bd
00000100: 6476 0e3e 494a 91bd 6415 0c3d d619 483d
00000110: 3ee2 3f3d 0ac5 0dbc 9759 96bc c6be ad3c
00000120: 8380 903d 5929 3d3c a9f0 cc3b 4c99 e83d
00000130: cdaa 61ba 069d 993c dad0 91ba 4d31 153d
00000140: b798 d43c 32f1 913d 9cf7 103d c32c cf3c
00000150: bbd8 063d 343f 88bd b44f e83c 7c0c b3bb
00000160: febf 053d a67b 343d 67a4 eabc 6b67 bcbd
00000170: 31f7 3fbd 84b5 32bd 55f7 48bd cf76 223d
00000180: 8875 dc3c 01b2 2bbd fc5a 493d 4ea0 823d
00000190: 53a3 d53c 4126 273b 757e 783d 7020 8b3d
000001a0: db3d ac3b 0d8d 273c 7995 103e 2022 643c
000001b0: 9da4 463d feb9 d53d 1a73 2a3d 3347 afbc
000001c0: 8d8a 6e3d 14bf a63d 6bf4 9abd 4caf 5c3c
000001d0: 3c66 a1bc 24a9 053d eafc 8c3d 1625 3d3d
000001e0: 3317 1c3d 3d8d dabd 11d0 d7bc a221 8cbc
000001f0: 6efa b8bb 4506 0bbd bc27 3bbd 77f9 403d
00000200: a7e9 33bc e1fc 54b8 84f1 e33d 2d93 f63d
00000210: ffc6 8cbc 76b5 a7bd 6369 903d fec8 5e3b
00000220: bed8 043c 1eff 633a 22cb f3bd a569 6d3c
00000230: 99f0 9c3d 40b7 23bd 2004 8f3d b586 37bd
00000240: 888e 113c cfd2 973d 3009 da3c 4fa6 48bd
00000250: 3b35 55bd 1171 0a3e 4e7e c73c b57f 80bc
00000260: b41e 26bd 022c c7b9 0380 943d a7a0 003e
00000270: 945d 863d 019c a53d 1ed9 91bd 8217 c9bc
00000280: 851f 55bc 1937 52bd 3aa2 703d b1af c6bc
00000290: 9030 53bd 518b efbb 80c4 4dbd 9471 813d
000002a0: 951d 5b3c cbe5 de3c 92bf 1a3c 1305 09bc
000002b0: 4aed 8a3d e839 6ebc 185b 4d3d 3fc7 a53d
000002c0: 9165 9dbd 2797 c73d e953 2c3b fdae 253d
000002d0: 4710 ae3d f519 283d b0d1 66bd ef8d fc3d
000002e0: 8363 e2bb f075 7dbc 31ce 83bd 95da 373c
000002f0: c313 b6bb 1545 3a3d 6a6e ad3d 1bfe 953d
00000300: 8410 28bc 94eb 913d 867b a73d f758 ccbc
00000310: 03cc 5e3d f529 813c 342b 7c3d 9066 e4ba
00000320: 5ead dd3c 77b7 153e 60b6 b93c 8020 403d
00000330: 3fed e93a 56bf 863d 758d f8ba b767 f2bb
00000340: 7373 013d cb90 dd3d 7640 a1bc 0117 81bd
00000350: 7473 5b3d d4a8 fb3b 5617 9a3c 355e b93c
00000360: 6b5a 45bd 55cd 703b a148 933d fc26 b6bd
00000370: 103c 70bc dbb3 af3c fcda 2abd eb83 533d
00000380: 4576 113d 48c7 36bd 4409 96bd 3890 523c
00000390: 4140 103b 89e1 c23c f311 cc3d 16c7 9bbd
000003a0: e1a5 a6bc 3d7f 1b3c 6a7d d43c 83ad 7cbd
000003b0: 2af5 bfbb 78c7 7a3d 69a3 773d 88f7 5ebc
000003c0: b511 013d fd22 b33c eebd 573c 83ba 0b3d
000003d0: 2541 a83d 13e9 90bd be4c dabc c025 a03d
000003e0: 48d1 dc3c 197d 2d3d f0ae c13d 5ddf 7fbd
000003f0: af37 883d a84a 27bc 59b1 d73c e48a d6bc

edge.bias f4 [3]
0.0055981963 -0.037380006 0.0895878
00000000: 1371 b73b c71b 19bd cf79 b73d
