kdd-backdooor/run_arxiv/model_weights.pth (torch, 268039 bytes, 6 tensors)

layers.0.weight f4 [128, 128]
00000000: 7178 1fbe 971f 243d f06c 73be 148f 4cbe
00000010: eb3a 753d 375c 34be 1dff 05be d71e 7dbe
00000020: a614 cb3d 78a1 023e e1cf 633d c89f a4bd
00000030: af24 8d3d c32f a13c 10b8 5abe 19ff 563e
00000040: a913 29be bda5 463e 38ff 213e 3dff 4abe
00000050: 2d53 66be 8c23 2e3e 8332 4fbe 6f60 fc3d
00000060: ded6 a0bd e8ca 543e 0ac0 013e 2575 37be
00000070: e7e2 c9bd bf98 673e 43b7 06be 2865 4c3d
00000080: fd19 6ebe 0835 c43d 960d 563e 1f36 36be
00000090: 5b74 a5bd 7c92 323e 2866 c23d 1949 3a3e
000000a0: a39e b33d 0c6a 65be 9e0f 113e e88b 59bd
000000b0: 8e3e ab3d c7a7 023e ad41 3f3e d2e8 d7bd
000000c0: 58af b13d 750c 4d3e f7d9 e43d e2f0 3a3e
000000d0: 4d3e 3fbe 65ac c0bd cbcc 32be 0c29 733e
000000e0: 3111 23be 1325 65be ffae 6b3e 90d5 febd
000000f0: 2395 093e fbb5 06be e31f c73d 5f2c 50be
00000100: 9eb2 69be 5df8 433e 2f34 24be d23a 4d3e
00000110: 1a84 5d3e 9d25 a3bd b996 d3bd 339e 5abe
00000120: dee2 653e c9d6 51be 2145 39be dbd5 e8bd
00000130: 2a07 d93d 9e19 df3d f8e0 483e 9ca5 07be
00000140: 680f ddbd fef6 8b3d 7143 123e c130 5dbe
00000150: 1b48 f53d 6cd6 253e 4dd5 edbd 1828 443e
00000160: 3896 5f3e 02cc ad3d 905a 1f3e e80f 49be
00000170: 1024 5d3e adc6 76be 0f77 fdbd ac37 f93d
00000180: f1a7 16be 7cd6 5a3e c648 bb3d 1335 3fbe
00000190: f724 a3bd 9f72 733e cddc 38be ade4 0cbe
000001a0: e8b0 ad3d b0c3 4a3e ed41 55be 140c bb3d
000001b0: 027b e23d 3c6e 843d 2804 e4bd c58f 06be
000001c0: 78ef 9f3d daf9 053e 92e0 263e 2f10 e13d
000001d0: 4423 a53d 329a 7c3e c3be e0bd 10d8 92bd
000001e0: b516 6dbe d1ca 1dbe c979 5f3e ce24 56be
000001f0: 5f95 cb3d 27dd 503e d229 fbbd 6384 0fbe
00000200: f5ef f53c 9e74 10bb 2393 8b3d 4fb8 b0bc
00000210: 6051 b7bc 5915 053b 318e c93b f584 5f3d
00000220: f867 123b 9515 18bd 8dad b53a 9a2d 183d
00000230: 0b2c 7fbd f018 31bd 806a 033e 82fa 17bc
00000240: 9da2 13bc 52f8 0ebd cff4 babc 55f7 a3bc
00000250: 99df e13d 6686 1b3c e740 d83d b472 1ebd
00000260: 7a64 0abc 47d8 a7bd 7fe8 92bd d8be ba3d
00000270: f80a 08ba f70f b8bc 0b2b 9e3d 8ccf 6d3c
00000280: ae8e 383d 9f4d c7bc 0208 12bd f0c3 ed3d
00000290: 0b1b 1eba 6d75 a63b 49c7 05bd 610a 44bd
000002a0: 47aa a9bd ab31 0ebb 59b7 d2bd 24be b43d
000002b0: 9471 58bd b2d8 ef3b a28a f3bd 8673 c83c
000002c0: c080 7fbd 72b5 a2bc afd1 523c 30f9 353b
000002d0: e5aa 2d3d 060a 903c 549b d23d 6d30 dc3b
000002e0: faac 9b3c 62ff b43d 2af8 14bb af31 773c
000002f0: 7b99 b1bc 8f1e 023c 4dc3 123c 09d9 653d
00000300: 6725 92bc 39f3 543c fd37 c33d 1687 49bd
00000310: f950 a0bd 4065 6fbc a150 153d 77aa ad3d
00000320: c74a 12bd 6ab2 f33d ac7d 953c 1525 393d
00000330: eab0 4dbc a6ad a73c a188 53bb 768b d53c
00000340: 1d0d 7b3d acbe 60bd 6305 f3bd d668 ee3d
00000350: e789 90bd 35e6 6fbd 6a0a 953d e155 ffbc
00000360: c19b c4bd 5656 34bd 480f e8bd 1f5a fabb
00000370: 6aa1 82bd dfb2 d03b 846f 473d 7ee5 823c
00000380: c9c8 953d abfb 40bc 04b9 b1bd ef87 3abb
00000390: e836 98bb 134a 06be bafe 763d c3f8 233b
000003a0: 48c7 8abd 06d6 56bc 0f7d d2ba 8c43 91bd
000003b0: f44d 82bc 291d a4bd a490 423d 5b76 99bc
000003c0: 26a4 05bc 46dd d5bc 6627 3e3c 889b aebc
000003d0: d9bc 1abd ae47 16bd 674b 363d f015 553a
000003e0: 50ff 903d 686f 843d 2fd7 9dbc a524 f93c
000003f0: c521 9fbc bcc8 2dbd cdca 353d 768a 043c
-0.15573289 0.04006919 -0.23772025 -0.19976455 0.05987064 -0.17613302 -0.13085599 -0.24718796
0.09916048 0.12756908 0.05561817 -0.08038288 0.068917625 0.019676095 -0.21359277 0.2099575
-0.16511406 0.19399162 0.15820014 -0.19823928 -0.22492667 0.17005748 -0.20234112 0.12323081
-0.07853483 0.20780528 0.12670913 -0.17915781 -0.09857731 0.22616862 -0.13155846 0.049901158
-0.23252101 0.095804274 0.2090362 -0.17794083 -0.08078834 0.17438692 0.09492141 0.18191947
0.08770492 -0.22403735 0.14166114 -0.05311194 0.08361541 0.12759314 0.18677397 -0.10542454
0.08676022 0.20024283 0.11174386 0.18255952 -0.1867611 -0.09407882 -0.17460935 0.23746127
-0.15924527 -0.22377424 0.23015974 -0.124430776 0.13435797 -0.13155358 0.09722879 -0.20329426
-0.22822043 0.19137712 -0.16035531 0.2004197 0.21632424 -0.079661585 -0.103314824 -0.2134941
0.22449824 -0.2049209 -0.18092777 -0.11368915 0.105970696 0.10893558 0.19617069 -0.13246769
-0.10793954 0.068342194 0.1428354 -0.2160063 0.11976644 0.16195077 -0.116129495 0.1915592
0.21834648 0.08486177 0.1556189 -0.19634974 0.21595788 -0.24099226 -0.12376224 0.12168822
-0.14712502 0.21370882 0.0914474 -0.1867259 -0.07966035 0.23774193 -0.18052979 -0.13759108
0.08481008 0.19801211 -0.2082593 0.09133163 0.11058618 0.06466338 -0.11133605 -0.13140781
0.07809347 0.13083592 0.16296604 0.10989415 0.08063367 0.24668196 -0.10973885 -0.07170117
-0.23153193 -0.154094 0.21823801 -0.20912477 0.099406 0.20396863 -0.12263836 -0.14015345
0.030021647 -0.0022042166 0.068151735 -0.02157226 -0.02237767 0.0020306914 0.0061509837 0.054570157
0.0022339802 -0.037129957 0.0013860926 0.037152864 -0.062297862 -0.043236673 0.12833595 -0.009276034
-0.009010938 -0.034904785 -0.022821812 -0.020015398 0.11028976 0.009492492 0.10559254 -0.03868361
-0.008446807 -0.081955485 -0.07173251 0.09118432 -0.0005189623 -0.02246855 0.077230535 0.014514815
0.045057945 -0.024329005 -0.035652168 0.11609638 -0.00060312514 0.005079916 -0.032660756 -0.04786146
-0.08284431 -0.0021697085 -0.10288877 0.08825329 -0.05284269 0.0073195333 -0.118916765 0.024469148
-0.062378645 -0.01986191 0.012867375 0.0027766936 0.042399306 0.017582905 0.10283533 0.00671964
0.01900338 0.08837773 -0.0022730925 0.015087529 -0.02167963 0.007941856 0.008957696 0.056115184
-0.0178401 0.012997442 0.09532163 -0.049201094 -0.07827944 -0.014611542 0.036453847 0.08479779
-0.035715844 0.11899264 0.018248402 0.04520138 -0.012554387 0.020468544 -0.0032277482 0.026067477
0.061291803 -0.05486934 -0.11866262 0.116410896 -0.07057553 -0.058569152 0.07277377 -0.03116888
-0.0960002 -0.04402765 -0.1133104 -0.007640138 -0.063784435 0.0063689793 0.048690334 0.015978571
0.07313687 -0.011778752 -0.08677867 -0.002846237 -0.004645217 -0.13114195 0.06030152 0.00250201
-0.06776291 -0.013112551 -0.0016058999 -0.07092962 -0.015906312 -0.08013374 0.04750122 -0.018733194
-0.008156812 -0.026106488 0.011606073 -0.021314397 -0.037777755 -0.036689453 0.044505503 0.0008128574
0.07079947 0.064665616 -0.019267647 0.030412981 -0.019425282 -0.042427763 0.04438286 0.008089652

layers.0.bias f4 [128]
00000000: fc40 e63d 0cd2 10bd 016b 88bb 3ba2 10bd
00000010: e424 37b9 9ff7 173e 15e8 ae3c c366 053e
00000020: 17aa 2a3e 8895 8dbd be1d df3e 8373 c33e
00000030: 3eac efbb 7d73 bd3d c8b1 eabd dfb8 353e
00000040: c9bc 8bbd 4a9e d7bc ee59 5b3e fa12 ab3d
00000050: fd5e 4a3e 89b3 f6bd 08f5 483e 2e23 8ebc
00000060: 5cf5 653d 74a7 e53e b464 4ebd 9ecf 73bd
00000070: 8cf7 0f3e 018e 643e 420d 0a3e ac3b d7bc
00000080: 4fb4 5ebd 6477 1a3e 572e af3d 4063 5b3e
00000090: af71 1e3e 24a8 a6bd fe74 a33d 4d60 e93d
000000a0: 8d95 07bd 7433 803d f8cd fabd 6eb3 eb3d
000000b0: bc47 1f3e 5da0 683d d399 023e 3d41 1cbd
000000c0: 840c ccbc 69d3 32bc 7ce8 c4bd 7b80 163e
000000d0: 38a2 143e b4a7 e83d 194b 183e 97f6 843c
000000e0: db89 f93d 015e a53d 1714 003e 646f aebc
000000f0: 6611 b7bd f1c0 ccbd 3156 a1bc 622e 483e
00000100: a332 7bbd 057d 2b3e d3b5 d43d 9e31 b6bd
00000110: ab71 fa3d b104 c2bd 84b3 953d 3b80 063e
00000120: f776 1c3e a650 03bd 1818 4f3d 5526 013d
00000130: 7ea9 be3e 36fb 443e 076d 7f3e 7686 093e
00000140: f818 1c3e cd78 543c 0e48 38bc 3dca 353e
00000150: a3e3 183c 3ddb 813e 47ce f83d 4641 dc3d
00000160: 6ffd 7f3d c6bf 603e 4f39 4b3d 3c99 443e
00000170: b003 133e a0b6 5f3d adf9 503e 6e00 b43d
00000180: 063f 353e eb95 2a3e a6af db3d 24d4 f8bd
00000190: 275a c73e 1690 5ebd 6cb4 72bc 7010 293e
000001a0: 9344 e3bd 3f08 adbd f5c4 06be 4e96 d83e
000001b0: 86f9 a33d 11c8 94bd 5a19 8e3d bdc2 de3d
000001c0: d46a 473d 3154 15bc 56d0 ac3c 3796 193e
000001d0: e82b 0cbd cc36 a13e b901 393c ee3d 3e3d
000001e0: 04ee fc3d 265c 4b3e 1d91 11be d961 173e
000001f0: 3118 093e 45b8 9c3d 7d71 373e c4b2 083e
0.112428635 -0.035356566 -0.0041631465 -0.035310965 -0.00017465983 0.14840554 0.0213509 0.13027482
0.16666447 -0.069132864 0.4357738 0.38174066 -0.007314234 0.09250543 -0.1145969 0.17746304
-0.06823117 -0.026320595 0.21421024 0.08353229 0.19762798 -0.12045962 0.19624722 -0.01735076
0.056142196 0.4485432 -0.050389007 -0.05952417 0.14059275 0.22319795 0.1348162 -0.026273571
-0.054371174 0.15084606 0.085537605 0.2142458 0.15473054 -0.08137539 0.07981299 0.11395321
-0.033101607 0.06259814 -0.12246317 0.11508833 0.15554708 0.05679356 0.12753992 -0.038148154
-0.024908312 -0.010914662 -0.096146554 0.14697449 0.14515007 0.11360112 0.14872397 0.016230864
0.12184497 0.080745704 0.12507664 -0.02129335 -0.08938865 -0.09997738 -0.01969442 0.19548944
-0.061327588 0.1674691 0.10386243 -0.088961825 0.12228712 -0.09473551 0.073096305 0.13134854
0.15279756 -0.032059334 0.050560087 0.031530697 0.37238687 0.19236454 0.24943934 0.13430199
0.152439 0.012968254 -0.011247648 0.17752929 0.009331617 0.25362578 0.12148719 0.107546374
0.062497552 0.21948156 0.0496152 0.1919908 0.14356875 0.054617524 0.20407744 0.087891445
0.17699823 0.16658752 0.10726862 -0.121498376 0.38935968 -0.05433663 -0.014813524 0.16510177
-0.11097064 -0.084488384 -0.1316107 0.42302173 0.08006577 -0.07264722 0.06938429 0.10876987
0.048685864 -0.009114311 0.021095436 0.14998709 -0.03422156 0.3148712 0.011291915 0.04644578
0.123500854 0.1985937 -0.14215513 0.1478342 0.13388135 0.07652334 0.17914386 0.13349444

feat.weight f4 [384, 128]
00000000: 5555 dcbd b6ff 25bd 9d26 aebd 78cf 9abc
00000010: 7e5d eabb 9324 a4bd 68ed d9bc 3333 07be
00000020: 3f75 8cbd 43e7 3aba 55f9 06bb d6a9 9bba
00000030: 2764 bdbd 59e9 6cbd 9538 abbd c3c1 8cbd
00000040: a481 c8bd cbe8 2fbd 6d5a 2fbe 5362 14be
00000050: e25c 0dbe 0a3a c43a 58ce c5bd a0a3 22ba
00000060: 6059 a6bd f222 21bb 119e 62bc 60b6 fd3b
00000070: 3f74 17be 0e5f 08be b58f 53be 050c d5bd
00000080: 83bf 4a3c 31f0 1bbe d089 0bbe 3672 9dbd
00000090: 4e59 42be c6f6 02be fcc5 46be 4988 c2bd
000000a0: 63c4 2dbd 4a6f 6abe d0eb d7ba efc4 57be
000000b0: 97a4 27be f3ad 38be d1f2 c5bd 860a 24bc
000000c0: cb12 b2bd ff03 90bc a51e 58ba 28c4 ebbd
000000d0: 1e1d 13be 809d 62be 0b7f e4bd 42ee 68bd
000000e0: 39d3 07be 7078 5abe fd4e 15be 4e1d d3b9
000000f0: db01 d93a f330 cabc 94df 50bd 9fe9 5cbe
00000100: 933b 8abd 07ac 3ebe 949d 30be 2c2c 33b8
00000110: 4fd9 16be 1020 03bc 222c d2bd 6ba0 98bd
00000120: 9512 31be d7d6 b1bc 7b6c 1ebe f130 6dbd
00000130: 9f53 a3bd 4e68 08be 7bcc 193a 5333 2ebe
00000140: f238 30be 5437 93bb a899 32bb 786c 3abe
00000150: f2ad 563c 7742 ecbd 62ca 08be ab86 49be
00000160: 73c0 18be a3fb 59be a4cb 5cbe d266 c2bd
00000170: c59c 0bbe 0e7c 50be aa72 60be e28e 2cbe
00000180: 1628 09be 7fd0 debd 5ac2 50be ad21 953b
00000190: 2bc3 e6b9 083a 6cba 377e 06be 3fb4 74bd
000001a0: 41a5 5f38 12c4 06bb 6786 bb3b e6b7 16bd
000001b0: 6a66 bdbd f02a 7d3c a228 24be 5ce4 04be
000001c0: 3fe2 f9bd 6d77 4fbd 8a23 66bd 530a 33be
000001d0: 81cf 56bd 400d 64be a5db 533c 99bd ebbd
000001e0: ae2d 6abe b422 02be a214 bbbd 840e e8bd
000001f0: 6f55 01be a15c 7d3a 2b39 37be cf49 51be
00000200: 6beb c0bd feb2 7fba 1c91 aabb 3b62 493a
00000210: d5f4 0b3c 6391 48be 7075 b6bd 9dce 7dbd
00000220: 631c 4cbe dbae 0a39 0565 bbbd 21c4 0aba
00000230: 5362 b0bd 63dc 22bd 5fee 2dbc 5064 72bd
00000240: d011 18bd ec2b a9bd f518 64be 0531 3dbe
00000250: 69e0 9ebd e630 aabb 1edc 07be 4ed8 4bba
00000260: 20e9 ffbd 8d49 61bb eed6 12ba 0de3 9ebd
00000270: 556a 4fbe 3adc 66be 0f2d 51bd da42 1abd
00000280: 513f 7abb 6620 5fbe aa97 49bd 8bc5 a5bd
00000290: 5fc5 4cbe f038 0bbd 8b7f e8bd dba7 34bd
000002a0: 01c1 04bc 8491 fdbd 5727 603a e4b1 99bd
000002b0: e49a 3fbd 921b c3bd da93 aabd 9584 b8ba
000002c0: f1fb 87bd 5f16 cabc de3a 16ba ad3a f0bd
000002d0: e595 d5bd 43cf 40be fbf1 40be 29cc 43bd
000002e0: d49f d4bd 3ea0 56be 2aa8 b7bd 5f79 edb9
000002f0: 05c5 40ba 5ac5 9fbd 013c 06bd 61a0 29be
00000300: ceb1 403c 8cdc 0bbe 198b d6bd 9d90 f2b9
00000310: b017 b8bd 87e9 87ba d77e 2dbe 0a1e f2bd
00000320: 64fe 45bd 4718 24bd 399a 45be 1117 c63a
00000330: d716 16be 1e6e 31be feed 8ab9 7561 0dbe
00000340: a8e3 37be 1235 8dba f347 86b9 54c2 2dbe
00000350: f2a8 12bc 8e2d edbd 5f44 55bd deaf 63bd
00000360: 791b d7bd 57db 00be 0859 8ebd 08bf 1ebe
00000370: b935 a4bd 019a ecbd 1577 fbbd a0e2 cebd
00000380: b27d efbd e11f 44be 2ec2 37be 5e18 9fb8
00000390: 733b 083a 4fc2 1cba dab6 c33b a39f 19bd
000003a0: b4f0 6b3a 7eda 22ba b84a 02bd 841d c3bd
000003b0: 0c1a bcbd ad0e 23bd e2c2 28be faf8 4abe
000003c0: 0895 2fbe a10a 51bd 9e22 05be 8f58 0fbe
000003d0: bb42 9bbd 7279 3fbe 7474 a4bd 95c0 adbd
000003e0: 0169 43be 0c0d 01be 9693 3a3c 5c3b 0fbe
000003f0: ead0 15be 52d7 36b9 516f 1cbe 858a 8bbd
-0.10758463 -0.040527068 -0.08503459 -0.018897757 -0.0071522584 -0.080147885 -0.026602462 -0.13203125
-0.068583004 -0.00071297976 -0.002059539 -0.0011876177 -0.09247618 -0.057839725 -0.083604015 -0.068728946
-0.09790352 -0.042946618 -0.17124338 -0.14490633 -0.13804963 0.001497091 -0.096584976 -0.00062041916
-0.08122516 -0.002458748 -0.013831631 0.007742688 -0.14790438 -0.1331751 -0.20660289 -0.10402683
0.0123747615 -0.15228345 -0.1362679 -0.076878 -0.1897938 -0.12789449 -0.19411463 -0.094986506
-0.042423617 -0.22894016 -0.0016473476 -0.21071218 -0.1637138 -0.18035106 -0.09665454 -0.010012275
-0.08694991 -0.01758003 -0.00082443125 -0.11512023 -0.14366576 -0.22130394 -0.11157044 -0.056867845
-0.13264169 -0.21335006 -0.14580913 -0.0004026689 0.0016556339 -0.024681544 -0.05099447 -0.21573494
-0.06749644 -0.1862031 -0.17247611 -4.2718064e-05 -0.14731334 -0.00800325 -0.10262324 -0.07452472
-0.17292245 -0.021708889 -0.1547107 -0.057908002 -0.07974934 -0.13321039 0.0005866957 -0.17011766
-0.17209223 -0.0044926796 -0.002725223 -0.1820544 0.013102995 -0.11536115 -0.13358453 -0.19680278
-0.14917164 -0.21287398 -0.21562058 -0.09492268 -0.13634022 -0.20359823 -0.21918741 -0.1685138
-0.13394198 -0.10879611 -0.20386639 0.0045511336 -0.0004401443 -0.0009011333 -0.13134085 -0.05974221
5.3321248e-05 -0.0020563644 0.005722809 -0.036796473 -0.092480496 0.015452132 -0.16031125 -0.12977737
-0.12201356 -0.050651003 -0.056186236 -0.17484407 -0.052443985 -0.2227068 0.012930785 -0.11510772
-0.22868988 -0.1270855 -0.09134795 -0.11330894 -0.12630247 0.0009664987 -0.17892902 -0.20438312
-0.094199024 -0.000975415 -0.0052052867 0.0007682179 0.008542259 -0.1958671 -0.08909118 -0.06196462
-0.19932704 0.00013225844 -0.09150127 -0.0005293508 -0.08612504 -0.03976096 -0.010615914 -0.059177697
-0.037126362 -0.082603306 -0.22275145 -0.1847573 -0.077576466 -0.0051938174 -0.13267562 -0.00077760674
-0.12495637 -0.0034376115 -0.0005601485 -0.0775815 -0.20255406 -0.22544947 -0.05106836 -0.03766141
-0.0038184712 -0.21789703 -0.049216904 -0.08094319 -0.19997166 -0.033989847 -0.11352452 -0.044105392
-0.008102656 -0.123812705 0.0008550784 -0.07504633 -0.046778575 -0.09526743 -0.08328982 -0.0014077598
-0.06639851 -0.02466887 -0.0005730818 -0.117299415 -0.10428981 -0.18829064 -0.18842308 -0.047802124
-0.10382047 -0.20959565 -0.089676216 -0.0004529459 -0.0007353577 -0.07801314 -0.032772068 -0.16565086
0.011761142 -0.1365835 -0.104757495 -0.00046265582 -0.08988893 -0.0010369279 -0.16942917 -0.11822136
-0.04833831 -0.040062215 -0.19297113 0.0015113075 -0.1465715 -0.17327163 -0.0002649873 -0.13806708
-0.17957938 -0.0010773262 -0.00025612078 -0.16968662 -0.0089514125 -0.115809545 -0.052067157 -0.055587642
-0.10503287 -0.12583672 -0.06950575 -0.1550256 -0.08018059 -0.115528114 -0.122785725 -0.10101819
-0.11693896 -0.19152786 -0.17945167 -7.5862496e-05 0.0005196847 -0.0005979882 0.0059727253 -0.037505757
0.0009000406 -0.00062123674 -0.03180954 -0.09527114 -0.091846555 -0.039808918 -0.16480592 -0.1982154
-0.17146695 -0.051035527 -0.13001487 -0.13998626 -0.07581087 -0.18698671 -0.08030024 -0.08483998
-0.19083025 -0.12602633 0.011387726 -0.13987488 -0.14630476 -0.00017437086 -0.15276839 -0.0681353

feat.bias f4 [384]
00000000: 216d 5dbe 5441 03bd 81fb 40be 8249 07be
00000010: edcb 19be e985 23be 0208 6dbe 36f3 e8bd
00000020: fb6d 1ebe c758 92bd 13df 52be aad9 5bbe
00000030: ab4a a2bd dc51 f8bd 7cdc 2ebe 4751 43be
00000040: fa43 1ebe 2f23 603d f11b 80bd 3307 37be
00000050: 97c9 d2bd 2c75 35bd 3dc4 9cbd 2026 37be
00000060: 1ac7 a3bd 7112 ce3d df60 81bd 5f5c 2cbe
00000070: 4ee5 debd 1451 50bd 768e 3ebe 3abe aabd
00000080: e945 79bd aa7d 14be a324 533d 9e16 1abe
00000090: 857f 8abd 349a 6abe f608 febd c7ad 44be
000000a0: 9b4f 63bc a5c1 5fbe 7ad8 21be 6410 9bbd
000000b0: 03b7 10be ed83 89bd 01af f9bd 2927 0ebe
000000c0: 8bff c2bd f607 0fbe 3840 c7bd 51c4 37be
000000d0: 9de0 d3bd bbe1 edbd 37b1 3abe 1d53 1ebd
000000e0: 788d dcbd bc83 58be 2f33 24be f8da 93bd
000000f0: 2ed2 133e d0cf 63be 4580 16bd d245 5ebe
00000100: 73b6 2dbe 7127 babc da29 00be 0a2f b2bd
00000110: a3bc 1f3e beca 4dbe fb23 abbd 0eaa 38be
00000120: b451 d3bd 1835 32be 2eea 30be 183b 63be
00000130: 6c09 82bd 59dd b43d 6770 e8bd 4c95 89bd
00000140: b874 c6bd d8df d7bd 28b3 1c3d f0cf 22be
00000150: f81d cdbd 8d00 4cbe 704b 4cbe f7e0 02bd
00000160: a68e 1f3e 39b2 91bc f830 353e 6a76 0dbe
00000170: 7030 44be 01e6 7cbd 4aa7 2fbe 207b 31be
00000180: 6348 dcbd d1c4 17be 7b83 02bd d501 6bbe
00000190: 61ba d9bd e17d 513d 8e6e 25be d7a3 66be
000001a0: ca55 d3bc 834f 003d a80a b4bd b319 03be
000001b0: 3189 03be 1b17 5bbd cb6b 55be cdf5 03be
000001c0: ec47 01be c13c ccbd 5701 67bd 3a17 e03c
000001d0: f1ba 0cbe 7c0e 4ebe fb05 94bd f839 3dbe
000001e0: 6c47 23be 0842 a3bd 7e65 06be c4ed 19be
000001f0: 3a7d 15be d7ff 82bd 1303 8bbd 7119 39be
00000200: 1340 15be 738f 4ebd 5665 3dbe 9852 adbd
00000210: 62eb 39be f335 51be 16a3 5bbe 198a 56be
00000220: b1a9 05be 414e 05be 2959 55be cbb2 1fbe
00000230: 35d4 25be d9ec a8bd 632b 26be 16fb dcbd
00000240: 6eae c9bd b604 543d 1347 98bd 21a4 68be
00000250: 0596 4fbe 7503 e6bd 9a28 21be 96f0 5cbd
00000260: 42b6 90bd 29ef 36bd 0d29 3cbc 81ec 02be
00000270: 6eba 62be a0ea b6bd 2385 78bd 4096 3fbe
00000280: 8f81 e9bd 8648 aebd c2c0 e5bc 8e0c 36be
00000290: 611a efbd a202 adbd 269f 2cbe 9db8 32be
000002a0: eb6a 58bd b044 49be 3311 cebd be3d bbbd
000002b0: 1145 55bd 71b1 f4bc b37b aabd 2073 5ebe
000002c0: ca5f 65bd a3b0 94bd c891 e5bd 8f3c 0abd
000002d0: cd67 84bd 745f 6abe f8e5 5abe 2813 a03c
000002e0: 2283 91bd 068b fdbd 3cf6 1fbe 446d 52be
000002f0: 551e 2e3e 1c09 03be a52b 15be 5b34 acbd
00000300: 17b8 b4bd b11b f43c 7d61 16be 4b8d 57bd
00000310: df6c e53d 9958 9dbd cad6 51be 3872 56be
00000320: 3ad6 3abe f488 dcbd 98d3 46be e6c5 87bd
00000330: 8efb b7bd f6ca 8ebd 0602 69be 2581 62be
00000340: 1c57 49be 8148 50bd f7fa 3f3e f5db aebd
00000350: 241e edbd 72b2 19be 137e 5cbe a1ee 51bd
00000360: 8e7a 063e 3465 d9bd a0ec c23d 1576 4bbe
00000370: 0693 31be bc95 88bd a738 edbd 9475 e5bd
00000380: dbf6 50be f21b 40bd 4fa1 c3bd 0d93 a2bd
00000390: 964c e1bd 3743 a63d 634b 23be b6ba 31be
000003a0: b5b6 c73d 9742 bcbd b387 50be 17c9 dfbd
000003b0: 5564 40be 3fa7 0abe 53ee 9bbd 3e88 04be
000003c0: 0426 3bbe 6aaf efbd 4229 dcbb 87de 4e3e
000003d0: 4c2b 14bd 2fa7 aabd 9aae dabd fd42 f0bd
000003e0: 651c edbd 706c 51be b9bf ebbc b65c 11be
000003f0: 868e b8bd ee44 31be 88af 8ebd 24f7 adbd
-0.2162366 -0.032044724 -0.18845941 -0.13211635 -0.15019198 -0.15969051 -0.23147586 -0.11374514
-0.15471642 -0.07145839 -0.20592909 -0.21469751 -0.07924398 -0.121249884 -0.17076296 -0.19073974
-0.15455619 0.054721054 -0.062553294 -0.1787384 -0.102923565 -0.044301197 -0.07654617 -0.17885637
-0.0799696 0.10062111 -0.06317305 -0.16832112 -0.1088358 -0.050858572 -0.18609032 -0.08337064
-0.060857687 -0.14501062 0.05154861 -0.1504769 -0.06762604 -0.22910386 -0.12404053 -0.19206916
-0.01387396 -0.21851213 -0.15805236 -0.07571486 -0.14132313 -0.06714616 -0.121915825 -0.13882126
-0.09521397 -0.1396788 -0.09729046 -0.17945983 -0.10345576 -0.1161532 -0.18231665 -0.03865348
-0.107691705 -0.21144003 -0.1603515 -0.07219499 0.14435646 -0.22247243 -0.03674342 -0.21706322
-0.1696413 -0.022723885 -0.12515965 -0.08700378 0.15599303 -0.20096871 -0.08356472 -0.1803362
-0.10318318 -0.17403066 -0.17276832 -0.22190511 -0.06349453 0.08831281 -0.11349564 -0.06717929
-0.09690231 -0.10540742 0.038256794 -0.15899634 -0.10015482 -0.19922085 -0.19950652 -0.031952824
0.1558176 -0.017785178 0.17694461 -0.13814703 -0.19159102 -0.061742786 -0.1715366 -0.17332125
-0.10755994 -0.14821173 -0.03186367 -0.22949918 -0.10631252 0.051145438 -0.16155455 -0.22523437
-0.025797743 0.03132583 -0.08791095 -0.12802772 -0.12845303 -0.053488832 -0.20841901 -0.12886734
-0.12625092 -0.099725254 -0.056397762 0.027354825 -0.13743187 -0.20122713 -0.07227703 -0.18479145
-0.15945214 -0.07971579 -0.13124654 -0.15032107 -0.14598551 -0.06396454 -0.06787696 -0.18076111
-0.14575224 -0.050429773 -0.18495688 -0.08463019 -0.18156198 -0.20430736 -0.21448931 -0.20951118
-0.13053013 -0.13018133 -0.20834793 -0.15595548 -0.16194232 -0.082483 -0.16227488 -0.10790078
-0.09847723 0.051762305 -0.07435431 -0.2271886 -0.20272072 -0.11231128 -0.15738145 -0.053940378
-0.07066013 -0.044661675 -0.011484397 -0.12785532 -0.2214143 -0.0893147 -0.060673844 -0.1870966
-0.114016645 -0.085099265 -0.028046016 -0.17778227 -0.11674953 -0.08447768 -0.16857585 -0.17453237
-0.05283634 -0.19655108 -0.10061874 -0.09142636 -0.05206782 -0.029869767 -0.08324375 -0.21723604
-0.055999555 -0.07260253 -0.11209446 -0.03374916 -0.06465111 -0.22887975 -0.21376789 0.019540384
-0.0710509 -0.12380032 -0.15621275 -0.20549494 0.17003758 -0.12796444 -0.1456743 -0.084084235
-0.08824175 0.02979836 -0.14685626 -0.05262498 0.11202406 -0.07682914 -0.20492092 -0.20942008
-0.18245783 -0.10768309 -0.19416654 -0.06629543 -0.08983527 -0.069723055 -0.22754678 -0.22119577
-0.19662136 -0.050850395 0.18748079 -0.08538047 -0.115780145 -0.15009478 -0.21532468 -0.051252965
0.13132688 -0.10615006 0.09517789 -0.19869263 -0.17341241 -0.066691846 -0.11583071 -0.11204067
-0.20406668 -0.04690165 -0.095522515 -0.07938204 -0.11000936 0.08118289 -0.15946727 -0.17356381
0.097516455 -0.091923885 -0.20364265 -0.10927027 -0.18788274 -0.13540362 -0.07613816 -0.12942597
-0.1827622 -0.117033795 -0.0067187855 0.20202075 -0.036174104 -0.08332669 -0.10677834 -0.11731527
-0.115776815 -0.20451522 -0.028777944 -0.14195523 -0.09011559 -0.17311451 -0.06967074 -0.08494404

edge.weight f4 [3, 128]
00000000: 718a 2bbd 1206 c6bc 04e4 c3bc c87c a63c
00000010: 54b9 6abb d09f e23c 84f4 173d afcb 963b
00000020: 07a0 963d 23ae 2c3d 6bee fdbc 16c3 b2bd
00000030: c915 a53d 5412 4e3c 6198 b13d 9d16 c4ba
00000040: 5a57 593d f625 fd3d b029 933d 4023 0f3d
00000050: 1180 603d 5f3e 2a3d 1fbd 8ebd edd6 c7ba
00000060: 71fd 813d 07b5 9abc 3d5b 813d 0dce c7bc
00000070: 39d6 a83d 8ec0 99bd 4e0c 82bd ce2d 3c3b
00000080: 2558 84bc 1d3e b33d 91de bfbd f58e 7d3b
00000090: e333 ac3d b0d5 aa3d cc87 0cbd 9d0b 3dbd
000000a0: d462 e53d 4b3b 883d 50b7 3bba e99e 943d
000000b0: f605 2dbc 8f97 ef3c 87bb 303d fed3 8abc
000000c0: b09d da3d 7670 0d3e e441 dd3b b820 ae3d
000000d0: 3a9e b4bd 3e05 57bd 487c a63d 80f2 d03d
000000e0: 79c7 8f3d 088e eb3b 8426 75bd 4435 fb3c
000000f0: 473d 913d e3d0 9d3d ff46 873d ecd0 15bd
00000100: 484e 0e3e 55ee 75bd 4624 393d 561f a93c
00000110: f156 713d b87c f2bb 504c eabb 065e 033d
00000120: d1d4 a73d 01f6 3d3c dcf1 913c 4125 e73d
00000130: e465 33bb 353a f63c a939 57bd e41d 4d3d
00000140: 7702 193d d738 963d 04a0 0c3d f10b 153d
00000150: 7c63 063d 83d8 63bd a7cf 233d 793f c43b
00000160: e710 333d 1afd 763d e7f4 89bc 2482 a7bd
00000170: f39a 12bd 4694 06bd e84b 1dbd c219 533d
00000180: 1676 193d 33ea fcbc 484b 783d 8df9 823d
00000190: 1e3b 033b 2f96 173b 8bea 773d 8657 a13d
000001a0: 3471 b83b 7e33 293c bdd4 103e 45b7 12bd
000001b0: b7d8 743d 53e4 d53d fa2f 583d 6b5e 1cbc
000001c0: d431 8e3d 0602 a73d 3451 85bd 25e4 c73c
000001d0: 5610 a1bc cb02 373d 81e8 8c3d ce72 6d3d
000001e0: 1046 4b3d 6e2e c4bd 1dc5 d8bc df82 c4bb
000001f0: 987f b63b d08d dfbd 43ce 0cbd f083 6f3d
00000200: 48cb 90bd d61e 26b9 4d9b e33d dc0b fa3d
00000210: faad 8bbc f92e 07be 4e23 913d efd3 49bd
00000220: 3e3a 20bd 7863 ddba fb84 f0bd 12b3 12be
00000230: 14c5 9c3d 5f29 b4bd f000 8f3d 29f1 c2bd
00000240: ca50 143c d3d2 9a3d 85c0 0abd 91a6 cebd
00000250: cbde ccbd fae3 0a3e b721 d9bc 7325 62bb
00000260: acc3 bcbd 3afe 8abe adbc 943d 14ad 003e
00000270: 3dae b33c 5f34 5f3c ae27 f2bd 3ecc c9bc
00000280: 9f7e 4bbc fdea dfbd d0d4 053c ff46 9abd
00000290: 9cb9 e1bd 84ae eebb 0b93 cbbd 954e 403c
000002a0: bd80 603c b97f c3bc 0962 fb3b 81d9 77bd
000002b0: 1d12 9a3c 6b6b 84bd 3bf5 073b dda1 a63d
000002c0: 2a5c 49bd e2a2 c63d 5210 483c c9a5 bcbb
000002d0: 95d4 173d abae 14bc abd3 d1bd dbfd fb3d
000002e0: 8b05 5ebd d159 8abd ef2f e5bd 5927 303c
000002f0: 0b32 e7bb 1c63 3a3d 70ed b33d a222 ca3c
00000300: 6618 2bbc 8ff6 ae3c cfd6 083d 61cf fd3c
00000310: 7246 0f3b b574 873c e845 4a3c 4958 4fbd
00000320: aa43 d0bc aa85 153e 630d e4bc 943d 3e3d
00000330: 24f9 61bd 49ab 7d3c 6b3b 60be fa49 65bd
00000340: 70bb 9bbc 1875 e43d 6845 8ebc bb9b e3bd
00000350: 8144 5b3d 2d04 60bd 8441 febc 5269 f9bc
00000360: 2062 c5bd 5ef3 62bd ba63 c73c 0887 10be
00000370: 0ad9 86bd 64a7 f9bc 4799 bfbd d418 963a
00000380: cb9f 41bc 44f6 d1bd d90d ffbd a1cf 543c
00000390: ca7a 15be 7d2e b63c aaab cb3d acf3 00be
000003a0: b438 aabc 8495 1d3c 7a07 d73c 8437 02be
000003b0: bde3 5bbd 170a 7b3d 2046 3b3c 8b16 78bd
000003c0: 2c55 8dbc c259 b43c 49c9 fdbc 59b1 8cbc
000003d0: f45b a83d 666f 0bbe 1a43 dbbc 79ba fb3c
000003e0: 344f b8bc af92 00bc ec89 c13d 7959 eabd
000003f0: e1f0 703c 09e8 f6bd 4b1d c3bc 1863 9cbd
-0.041880075 -0.024172816 -0.023912437 0.020323172 -0.003581603 0.027664095 0.037098423 0.0046019177
0.073547415 0.042158257 -0.030997476 -0.08728616 0.08060796 0.012577612 0.08671642 -0.0014960353
0.05306182 0.12360756 0.07185686 0.034945726 0.054809634 0.041563388 -0.06969666 -0.0015246548
0.06347168 -0.018885149 0.063162304 -0.024390245 0.08243985 -0.0750743 -0.06350003 0.0028713825
-0.016155312 0.087520815 -0.09368623 0.0038689945 0.08408334 0.08341539 -0.034309193 -0.046153653
0.112004906 0.06651934 -0.00071607996 0.07256872 -0.010560503 0.029247073 0.04314759 -0.016946789
0.10674608 0.13812432 0.0067522395 0.08502334 -0.08819242 -0.052495234 0.081291735 0.10202503
0.07020468 0.0071885623 -0.059851184 0.030665047 0.07091766 0.077058576 0.06605338 -0.036576197
0.1389705 -0.060041744 0.04520061 0.020644825 0.058920804 -0.0074001215 -0.0071502104 0.03207209
0.081948884 0.011594296 0.017815523 0.112864025 -0.0027373964 0.030057052 -0.052545223 0.050077334
0.037355866 0.0733506 0.03433229 0.03638834 0.03280972 -0.055626404 0.039992955 0.005989012
0.04371729 0.06029997 -0.016840411 -0.08179119 -0.035792302 -0.03285625 -0.038402468 0.051538236
0.03746613 -0.030873394 0.06061867 0.06395254 0.002002425 0.0023130288 0.060526412 0.07878022
0.0056287292 0.010327218 0.14143653 -0.03581931 0.059776988 0.1044394 0.05278013 -0.009543995
0.06943098 0.08154683 -0.06509629 0.02440078 -0.01966111 0.044680398 0.06880284 0.057970814
0.049627364 -0.09579168 -0.026461178 -0.0059970464 0.0055694096 -0.109157205 -0.034376394 0.058475435
-0.07070023 -0.00015842481 0.11113606 0.12209293 -0.017050732 -0.13201512 0.07086812 -0.04927438
-0.039118044 -0.0016890606 -0.11744114 -0.14326122 0.07654777 -0.087969534 0.06982601 -0.09518654
0.009052465 0.07559743 -0.033875007 -0.10090364 -0.10003432 0.13563529 -0.026505334 -0.0034507185
-0.09217009 -0.27147084 0.072625495 0.12566024 0.02193367 0.013623326 -0.118239745 -0.024633523
-0.012420326 -0.10933492 0.008168414 -0.07533073 -0.1102173 -0.0072839875 -0.099401556 0.011737485
0.013702569 -0.023864614 0.007671599 -0.060510162 0.018807465 -0.06465801 0.0020745534 0.08136342
-0.04916016 0.09699036 0.012210922 -0.005757068 0.03706797 -0.009074847 -0.102454506 0.123042785
-0.054204505 -0.06755412 -0.11190783 0.010751569 -0.007055526 0.045504674 0.08785522 0.024674717
-0.010442829 0.021357803 0.033407982 0.030982675 0.0021862057 0.016535142 0.0123457685 -0.050621305
-0.02542289 0.1460177 -0.027838415 0.046445444 -0.05516924 0.015482732 -0.21897666 -0.055978753
-0.019010276 0.11155146 -0.01736708 -0.111136876 0.053532127 -0.054691482 -0.0310371 -0.030445728
-0.096378565 -0.055407874 0.024339546 -0.1411401 -0.06584366 -0.030475326 -0.09355407 0.0011451491
-0.011817883 -0.102520496 -0.12453813 0.012988956 -0.14597622 0.022238964 0.09944852 -0.12592953
-0.020778991 0.009618167 0.026248682 -0.1271649 -0.053683985 0.06128892 0.011430293 -0.060568374
-0.017252527 0.022015456 -0.03097977 -0.01717441 0.08220664 -0.13616714 -0.026765395 0.030728566
-0.022498704 -0.007847472 0.09450135 -0.11442847 0.0147058675 -0.12055976 -0.023817679 -0.07636088

edge.bias f4 [3]
00000000: 4dc3 483c a07f bcbd ea80 be3d
0.012253595 -0.0920403 0.09301932
