kdd-backdooor/pre_arxiv/model_weights.pth (torch, 268039 bytes, 6 tensors)

layers.0.weight f4 [128, 128]
0	0xbdc0d634	-0.09415856
1	0x3dc92c77	0.09822934
2	0xbda72306	-0.08160977
3	0xbe3300bc	-0.17480749
4	0x3e1aff06	0.15136346
5	0xbe2969cc	-0.16544265
6	0xbdcc1ac7	-0.09966045
7	0xbd871ca8	-0.065972626
8	0x3e1ede32	0.15514448
9	0x3e440d2a	0.19145647
10	0x3e315bae	0.1732013
11	0xbe474b9b	-0.19462435
12	0x3e481ff6	0.19543442
13	0x3de1cf97	0.11025923
14	0xbe1bf01e	-0.15228316
15	0x3e1543d5	0.14576657
16	0x3db49910	0.08818257
17	0x3e0c48bb	0.1369962
18	0x3e32a29f	0.17444848
19	0xbdd15222	-0.10220744
20	0xbdd3a9b2	-0.10335101
21	0x3e57119c	0.21002811
22	0xbe4d10f6	-0.20026001
23	0x3e502ade	0.20328853
24	0xbe095c66	-0.13414153
25	0x3de6927a	0.11258407
26	0x3e54161a	0.20711556
27	0xbe6fd41c	-0.23420757
28	0xbdc4d622	-0.09611155
29	0x3e3e2717	0.18569599
30	0xbd769dd0	-0.060209095
31	0x3e1053ed	0.14094515
32	0xbe2643ff	-0.16236876
33	0x3e4a6b05	0.19767387
34	0x3d87449b	0.06604882
35	0xbdd1c609	-0.1024285
36	0xbe4c3dba	-0.19945422
37	0x3e1b2dc4	0.15154177
38	0x3d7cbdbf	0.061704393
39	0x3e3aff67	0.18261491
40	0x3e63de3c	0.22252744
41	0xbe1ba4a2	-0.15199521
42	0x3e3e4280	0.18580055
43	0xbe6552d1	-0.22394873
44	0x3e245e82	0.16051677
45	0x3e210c7a	0.15727416
46	0x3e69271f	0.2276883
47	0xbe27ba20	-0.16379595
48	0x3dfff284	0.12497428
49	0x3e049911	0.12949015
50	0x3e35d92a	0.17758623
51	0x3e63f81c	0.22262615
52	0xbdcdac46	-0.10042624
53	0xbe4023e5	-0.18763693
54	0xbe653cf7	-0.22386537
55	0x3e053c81	0.13011362
56	0xbdcccf17	-0.10000437
57	0xbe072cac	-0.13200635
58	0x3ddff1d9	0.10934801
59	0xbdd4c925	-0.10389928
60	0x3e03d85f	0.12875508
61	0xbd6aee41	-0.057356123
62	0x3e3b04f4	0.18263608
63	0xbe218914	-0.15774947
64	0xbe4d57fb	-0.20053093
65	0x3e327850	0.17428708
66	0xbe6b9bdc	-0.23008674
67	0x3dd5bb3a	0.10436101
68	0x3e2d8fcf	0.1694939
69	0xbdf1d659	-0.11808462
70	0xbde5f0dd	-0.11227582
71	0xbe525440	-0.20539951
72	0x3d77cd7b	0.060498696
73	0xbe4fe821	-0.20303394
74	0xbdc35a99	-0.095387645
75	0xbda09e92	-0.07842745
76	0x3df56f36	0.119841024
77	0x3e1bad1a	0.15202752
78	0x3e4d7ca4	0.20067078
79	0xbe405ebf	-0.18786143
80	0xbded5b40	-0.1158967
81	0x3e29756b	0.16548698
82	0x3e4f3189	0.2023374
83	0xbe57dfaa	-0.21081415
84	0x3dd005a5	0.101573266
85	0x3e46b154	0.19403583
86	0xbe20ee7c	-0.15715975
87	0x3e226a63	0.15860896
88	0x3e385aaf	0.18003343
89	0x3e25b0ed	0.16180773
90	0x3e2a8713	0.16653089
91	0xbdf784df	-0.1208589
92	0x3e666087	0.2249776
93	0xbe34c357	-0.17652641
94	0xbd83eecf	-0.064420335
95	0x3dfc3c26	0.1231616
96	0xbd999332	-0.074987784
97	0x3e6e327e	0.23261449
98	0x3e4ca710	0.19985604
99	0xbe2e691c	-0.17032284
100	0xbe50cb33	-0.20390014
101	0x3d9b07f7	0.075698785
102	0xbdf3dc74	-0.119072825
103	0xbe327ba9	-0.17429985
104	0x3e4f438b	0.2024061
105	0x3e348bb3	0.17631416
106	0xbdb2b087	-0.08725076
107	0x3e2771f4	0.16352063
108	0x3e231b5b	0.15928404
109	0x3e5f85ac	0.21828336
110	0xbde5cd5a	-0.11220808
111	0xbe124f19	-0.14287986
112	0x3de0f94f	0.10985052
113	0x3e12e0ad	0.1434352
114	0x3d9b802e	0.07592808
115	0x3df063fb	0.1173782
116	0x3e256cbc	0.1615476
117	0x3e58fceb	0.2119023
118	0xbe485642	-0.19564155
119	0xbe0f0d12	-0.1396983
120	0xbe330c2e	-0.17485115
121	0xbe33ef10	-0.17571664
122	0x3e08eb69	0.13371052
123	0xbe104669	-0.1408936
124	0x3d9e2ed4	0.077237755
125	0x3e2c4cfa	0.16826239
126	0xbd97178e	-0.073775396
127	0xbdd617c8	-0.10453755
128	0xbe3f1e53	-0.18663912
129	0x3ddb9713	0.107221745
130	0xbe638507	-0.22218715
131	0xbe0ab2bb	-0.13544743
132	0x3e51259e	0.20424506
133	0xbd8635a1	-0.06553198
134	0xbe1d19bb	-0.15341847
135	0xbe6587f6	-0.22415146
136	0x3dc9ab1e	0.09847091
137	0x3dbaef97	0.091277294
138	0x3d94235a	0.07233305
139	0xbd944459	-0.07239599
140	0x3e13493d	0.14383407
141	0x3d89e91e	0.06733917
142	0xbe5d92de	-0.21638057
143	0x3e5741c6	0.21021184
144	0x3e168b43	0.14701562
145	0x3e0f5f9c	0.14001316
146	0x3df908be	0.121598706
147	0xbd91a3bd	-0.07111309
148	0xbe456063	-0.1927505
149	0x3e3502a1	0.17676784
150	0xbdc3b0a7	-0.09555178
151	0x3e1af446	0.15132245
152	0xbe2ace16	-0.16680178
153	0x3dd2e143	0.102968715
154	0x3e2d84e9	0.16945232
155	0xbe2b0810	-0.16702294
156	0xbe590bc8	-0.211959
157	0x3e33ca0d	0.17557545
158	0xbe4a0c69	-0.19731297
159	0x3e23b38c	0.1598646
160	0xbe20f327	-0.15717755
161	0x3e3d0e61	0.18462516
162	0x3d9aadaa	0.07552655
163	0xbdeda51d	-0.116037585
164	0xbe4c57a7	-0.19955312
165	0x3e1eec31	0.15519787
166	0x3dce7078	0.100800455
167	0x3e017ca7	0.12645207
168	0x3e43fc5a	0.19139233
169	0xbdf1b223	-0.11801555
170	0x3e10028e	0.14063475
171	0xbde1d23d	-0.11026428
172	0x3da33e54	0.079708725
173	0x3d915d37	0.070978574
174	0x3e3da970	0.18521667
175	0xbd9513b2	-0.07279147
176	0x3e48474c	0.19558448
177	0x3e3da900	0.185215
178	0x3ddbc35a	0.1073062
179	0x3e59c837	0.21267782
180	0xbe3cbfec	-0.18432587
181	0xbe16db35	-0.14732058
182	0xbd64cb43	-0.055857908
183	0x3e3846b3	0.1799572
184	0xbdf8d9db	-0.12150928
185	0xbe3f2a06	-0.18668374
186	0x3cc0acee	0.02351996
187	0xbe1901e6	-0.1494213
188	0x3e06adfd	0.13152309
189	0xbe262b0a	-0.16227356
190	0x3de192a9	0.11014301
191	0xbe339cbf	-0.17540263
192	0xbe491d0f	-0.19639991
193	0x3e017f00	0.12646103
194	0xbdc34f71	-0.095366366
195	0x3da06c59	0.07833166
196	0x3e02fb27	0.1279112
197	0xbda51546	-0.08060698
198	0xbe0d5b58	-0.13804376
199	0xbdf51895	-0.11967579
200	0x3dec8da2	0.11550452
201	0xbe2e824d	-0.17041893
202	0xbe4f2f44	-0.20232874
203	0xbd8d0c79	-0.068871446
204	0x3d496dbf	0.049176928
205	0x3d73d33b	0.059527617
206	0x3e446e43	0.19182687
207	0xbe24fccd	-0.16112061
208	0xbe0b4e87	-0.13604175
209	0x3de80539	0.11329121
210	0x3e29df2a	0.16589037
211	0xbd9015f4	-0.07035437
212	0x3e1a85f3	0.1509016
213	0x3e2f4851	0.1711743
214	0xbe1fb770	-0.1559732
215	0x3da9c578	0.08289617
216	0x3de1af41	0.11019755
217	0x3e09dd0e	0.13463232
218	0x3dfebf0c	0.12438783
219	0xbde3a171	-0.11114777
220	0x3e3c456f	0.18385862
221	0xbe30eebd	-0.17278571
222	0xbe26d93a	-0.16293803
223	0x3e16dc54	0.14732486
224	0xbdd97db0	-0.10619676
225	0x3e6459a7	0.22299825
226	0x3e1e5208	0.1546098
227	0xbe47ed13	-0.1952403
228	0xbdc99fd7	-0.0984494
229	0x3e3ba7be	0.18325707
230	0xbd8bd823	-0.06828334
231	0xbe2434e3	-0.160358
232	0x3e2b84ee	0.16749927
233	0x3d727754	0.05919583
234	0xbdb10504	-0.08643535
235	0x3e5ac267	0.21363221
236	0x3ddabc7d	0.106804825
237	0x3d923520	0.07139039
238	0xbdd88dc5	-0.105739154
239	0xbe3f3852	-0.18673828
240	0x3e0b2345	0.13587673
241	0x3df18138	0.11792225
242	0x3e440422	0.19142202
243	0x3dc1e158	0.09466809
244	0x3e59ca65	0.21268614
245	0x3d62d846	0.055382036
246	0xbdf7942f	-0.12088811
247	0xbd858527	-0.065195374
248	0xbe3a61a2	-0.18201306
249	0xbd4feb44	-0.050761476
250	0x3e5209dc	0.20511574
251	0xbda2fb9c	-0.07958147
252	0x3dd42721	0.10359026
253	0x3e4ce22d	0.20008154
254	0xbe2eac78	-0.17057979
255	0xbd8a9c59	-0.06768102

layers.0.bias f4 [128]
0	0x3e281b18	0.16416585
1	0x3e358b3c	0.17728895
2	0xbb267343	-0.0025398291
3	0x3e294406	0.16529855
4	0xbdecff6b	-0.115721546
5	0xbdd0730a	-0.10178192
6	0xbe0d80c0	-0.13818645
7	0xbdb0ce86	-0.08633141
8	0x3e444140	0.19165516
9	0x3e373438	0.17891014
10	0xbdc7b988	-0.09752184
11	0x3e16a98d	0.14713116
12	0x3e452695	0.19252999
13	0x3e3ba443	0.1832438
14	0x3dc11420	0.09427667
15	0x3db7f12c	0.08981547
16	0xbdae23b2	-0.08502902
17	0xbdff455f	-0.12464403
18	0xbd94c777	-0.072646074
19	0x3dfaf73e	0.12254189
20	0xbd195850	-0.037437737
21	0x3dca77f5	0.09886161
22	0xbd97a4fb	-0.074045144
23	0x3e335735	0.17513736
24	0x3ddf2206	0.10895161
25	0x3e20f0ca	0.15716854
26	0xbdd8a341	-0.10578013
27	0x3e1e0e9a	0.15435258
28	0xbd0e7c73	-0.034786653
29	0x3e48d708	0.19613278
30	0x3e04b837	0.12960897
31	0xbda7c4eb	-0.08191856
32	0xbc92d0e8	-0.01792188
33	0x3dc8602d	0.09783969
34	0x3e1eded6	0.15514693
35	0x3e4165c1	0.18886472
36	0x3e66418f	0.22485946
37	0xbdc6a841	-0.09700061
38	0x3d75d451	0.060016934
39	0x3d8ba83f	0.068192
40	0xbdec9989	-0.11552722
41	0x3d945d0d	0.072443105
42	0xbda343a3	-0.07971885
43	0x3e34ed91	0.1766875
44	0x3e290843	0.16507058
45	0x3e43f08b	0.19134729
46	0x3e4fdfba	0.20300189
47	0x3e130b6b	0.14359824
48	0x3e1aef7f	0.15130423
49	0x3ed47af5	0.4150006
50	0x3dcaba01	0.09898759
51	0x3de14c77	0.11000913
52	0xbe082941	-0.13296987
53	0x3e43d65d	0.19124742
54	0x3e8565f2	0.2605434
55	0x3e2594fd	0.16170116
56	0xbddbfff3	-0.10742178
57	0x3d29d1ab	0.04145972
58	0x3e31cc8d	0.17363186
59	0xbd2fba3c	-0.042902216
60	0xbd2b71a7	-0.041856434
61	0x3c70ed31	0.014704988
62	0x3e989ff6	0.2980954
63	0x3d3e5175	0.046464402
64	0xbcc2abd7	-0.02376358
65	0x3dc8d7bf	0.09806775
66	0xbe0ebf16	-0.13940081
67	0x3e6f601f	0.23376511
68	0x3d94bb25	0.072622575
69	0x3e4b0df4	0.19829541
70	0xbe1255da	-0.14290562
71	0x3e612f73	0.21990757
72	0xbd359da6	-0.0443398
73	0xbe074e88	-0.13213551
74	0x3e27e393	0.16395406
75	0xbd14d66c	-0.0363373
76	0x396dbf20	0.00022673281
77	0xbd030f94	-0.03199728
78	0xbd7b0cbf	-0.061291452
79	0x3da4edb0	0.08053148
80	0x3e10c2d8	0.14136827
81	0x3e77a1f6	0.24182877
82	0x3dcf1446	0.10111289
83	0xbd80cde9	-0.06289274
84	0x3cae134b	0.021249434
85	0x3e4bc9fe	0.19901273
86	0x3e51741a	0.20454445
87	0x3dcdb356	0.10043971
88	0x3dc428e6	0.09578113
89	0xbdce2f8a	-0.10067661
90	0x3e43370c	0.19063967
91	0x3db2742f	0.087135665
92	0xbd177717	-0.036978807
93	0x3df50255	0.119633354
94	0x3e34a0c5	0.17639454
95	0x3bf18437	0.0073704976
96	0xbe0045b9	-0.12526597
97	0x3cbe6cba	0.023245204
98	0xbdcb9967	-0.099413686
99	0xbbb06e24	-0.0053842235
100	0x3e5479c1	0.2074957
101	0x3debd6e8	0.115155995
102	0x3e284d5a	0.16435757
103	0x3e32e3d4	0.17469722
104	0x3e524cee	0.20537159
105	0xbca46243	-0.020066386
106	0x3e223ef8	0.15844333
107	0xbd488042	-0.04895044
108	0xbd772274	-0.06033559
109	0x3e2f431c	0.17115444
110	0x3de3787e	0.111069664
111	0x3cdfb08b	0.027305862
112	0xbd8b177b	-0.06791588
113	0x3e3ca755	0.18423207
114	0x3e46ee5a	0.19426861
115	0x3e5cac7e	0.21550176
116	0xbbd33ad9	-0.006446224
117	0x3e1f8f7f	0.15582083
118	0x3e3fcc3c	0.18730253
119	0x3ba58a98	0.005051922
120	0x3e3655b6	0.17806134
121	0xbd1319e0	-0.03591335
122	0xbd86d3b7	-0.0658335
123	0xbd478661	-0.048712138
124	0x3e0403a0	0.12892008
125	0xbe0fee5f	-0.14055775
126	0x3c7d7f0a	0.015472183
127	0x3a8ac5f2	0.0010587557

feat.weight f4 [384, 128]
0	0xbe60a51b	-0.21937983
1	0xbe3b114d	-0.18268318
2	0xbd15c2e1	-0.036562804
3	0xbdb5ce15	-0.08877198
4	0xbde0d7eb	-0.10978683
5	0xbdc8dac2	-0.0980735
6	0xbc22c6b4	-0.00993507
7	0x3cdc2e57	0.026877565
8	0xbe4aae29	-0.19793
9	0xbe22a250	-0.1588223
10	0xbbc05937	-0.0058700102
11	0xbdd2762e	-0.10276447
12	0xbe4fec59	-0.20305003
13	0xbe63979b	-0.22225802
14	0xbe56fbff	-0.20994566
15	0xbe214943	-0.15750603
16	0xbd86e45e	-0.06586526
17	0xbd9b7e3c	-0.07592437
18	0x3b85004c	0.0040588733
19	0xbdb5a0de	-0.088685736
20	0xbe0d8f1c	-0.13824123
21	0xbdae7e4a	-0.085201815
22	0xbe0a5126	-0.13507518
23	0xbe2797a2	-0.16366437
24	0xbe6aa91c	-0.22916073
25	0xbe045aaa	-0.1292521
26	0xbdcad01b	-0.09902974
27	0xbe4c21b2	-0.19934729
28	0xbdc7e2b4	-0.09760037
29	0xbe095a4a	-0.13413349
30	0xbe42d591	-0.19026782
31	0x3a8dd527	0.0010820971
32	0xb7836562	-1.5663627e-05
33	0xbe4dafdf	-0.20086621
34	0xbe00a726	-0.12563762
35	0xbda8e779	-0.08247275
36	0xbda9fa73	-0.082997225
37	0x3a58c1af	0.0008268607
38	0xbdbecd04	-0.093164474
39	0xbdd54492	-0.104134694
40	0xbd6f4025	-0.058410782
41	0xbe5e0e2b	-0.21685092
42	0xbd90b515	-0.07065789
43	0xbe2ad8cb	-0.16684262
44	0xbdf9981a	-0.12187214
45	0xbe5fc2a3	-0.21851592
46	0xbdc0cd80	-0.09414196
47	0xbdfa6d10	-0.12227833
48	0x3a315f0b	0.00067661767
49	0xbd5d09f4	-0.05396457
50	0xbdab1b12	-0.083547726
51	0xbe67476b	-0.22585838
52	0xbdcea73c	-0.10090491
53	0xbe2222ff	-0.15833662
54	0xbdadd6d0	-0.08488238
55	0xbe32a9d0	-0.17447591
56	0x3a521860	0.00080144964
57	0x3cbb2736	0.022845846
58	0xbdb69831	-0.08915747
59	0xbd8a1eca	-0.06744154
60	0xbd7cb7c6	-0.061698698
61	0xbcfe69bb	-0.031056276
62	0xbe00e683	-0.12587933
63	0xbe3de8b5	-0.18545802
64	0x3b8a7659	0.004225534
65	0xbe63ffd1	-0.22265555
66	0x3c68fab3	0.014219928
67	0xbe48aa3e	-0.19596192
68	0xbe3cca38	-0.18436515
69	0xbda54122	-0.08069064
70	0xbc86c7c3	-0.016452676
71	0xbe7142ba	-0.2356061
72	0x3ccfea69	0.02538033
73	0x3c999148	0.018746033
74	0xbd894693	-0.06702914
75	0xbcfb49eb	-0.030674895
76	0xbca880b4	-0.020569183
77	0xbda0347c	-0.078225106
78	0xbdc9492c	-0.098284096
79	0xbe63d550	-0.22249341
80	0xbde22d45	-0.11043791
81	0xbdfdd243	-0.1239362
82	0xbe127959	-0.14304103
83	0xbcd1d031	-0.025611969
84	0x3ca79ba2	0.020459954
85	0xbe5e03a0	-0.2168107
86	0xbddbfab4	-0.10741177
87	0xbe368139	-0.17822732
88	0xbdac41b5	-0.0841097
89	0xbce24ba3	-0.027623957
90	0xbe196b80	-0.14982414
91	0xbdee3c65	-0.11632613
92	0xbde6cea4	-0.11269882
93	0xbe493589	-0.19649328
94	0xbe3bf688	-0.18355763
95	0xbde933e8	-0.113868535
96	0xbd7b84ec	-0.06140606
97	0xbdc5eb2f	-0.09663998
98	0xbd5cf5b7	-0.05394527
99	0xbc9c48a7	-0.019077612
100	0xbda3a330	-0.0799011
101	0xbe18c2f6	-0.14918122
102	0xbd900793	-0.07032695
103	0xbe2895b0	-0.16463351
104	0xbe5c5814	-0.21517974
105	0xbd2d2d22	-0.04227937
106	0xbdea140e	-0.114296064
107	0xbd3fae2d	-0.046796966
108	0xbadd5a18	-0.0016887812
109	0xbe64264b	-0.22280233
110	0xbdf5e944	-0.120073825
111	0xbd2488b0	-0.040169418
112	0x39d81bd8	0.00041219476
113	0xbe4a8c95	-0.1978019
114	0xbe62d05d	-0.22149797
115	0xbe13af7f	-0.14422415
116	0xbcdf266e	-0.027240004
117	0xbe2affb9	-0.16699113
118	0xbdb8acfc	-0.09017369
119	0xbe1172cf	-0.14203952
120	0xbe52d5ad	-0.20589323
121	0xbc155161	-0.0091136405
122	0xbb97c16c	-0.004631212
123	0xbd4014da	-0.046894886
124	0xbd7c0817	-0.061531153
125	0xbdb8c9bb	-0.09022852
126	0xbe34acce	-0.17644045
127	0x3bc69eb7	0.0060614008
128	0xbe2343ca	-0.15943828
129	0xbe134a7d	-0.14383884
130	0x3da23350	0.07919943
131	0xbd426fcb	-0.047469895
132	0x3d84763a	0.064678624
133	0x3da50180	0.08056927
134	0xbdb503f8	-0.088386476
135	0xbc9f2006	-0.01942445
136	0xbdf05cd6	-0.11736457
137	0xbd9e3383	-0.07724669
138	0x3e000b45	0.12504299
139	0xbe17fc93	-0.14842443
140	0xbd2aefa0	-0.04173243
141	0xbd4219c1	-0.047387842
142	0xbe1a4181	-0.1506405
143	0xbe47636e	-0.19471523
144	0x3ce00009	0.027343767
145	0xbb8cc4be	-0.0042959144
146	0x3ceda3a8	0.029008701
147	0xbe121427	-0.142655
148	0x3d173d53	0.036923718
149	0xbdb127a6	-0.086501405
150	0x3ddad8da	0.106858924
151	0xbd49255f	-0.049107905
152	0xbd3606f3	-0.04444022
153	0xbe13b991	-0.14426257
154	0xbafad134	-0.0019135834
155	0xbe1b836d	-0.15186854
156	0x3d2a7edb	0.041624885
157	0xbe10d6a3	-0.14144377
158	0xbe0840b2	-0.1330593
159	0x3a4d169a	0.0007823497
160	0xb9ae8667	-0.00033288004
161	0xbe1077e1	-0.1410823
162	0xbdcb7344	-0.099340945
163	0xbd254f16	-0.040358625
164	0xbe035e8c	-0.12829036
165	0xbaf5abc1	-0.0018743203
166	0xbe1d92bd	-0.15388007
167	0xbe0aa52f	-0.13539575
168	0x38b2015c	8.4879546e-05
169	0xbdb75da5	-0.08953408
170	0x3d913fe6	0.07092266
171	0xbe61d997	-0.2205566
172	0xbe07944d	-0.13240166
173	0xbe31eb3d	-0.17374893
174	0xbe388a6e	-0.18021557
175	0xbdc95bc9	-0.0983196
176	0xb986468e	-0.0002561104
177	0xbd2445ac	-0.040105507
178	0xbde66e94	-0.1125156
179	0xbd84d003	-0.064849876
180	0xbbd617b9	-0.0065335897
181	0xbd80133f	-0.06253671
182	0xbe3ed295	-0.18635018
183	0xbdff849d	-0.12476466
184	0x3937e5d5	0.00017537859
185	0x3dde952d	0.10868297
186	0xbe397652	-0.18111542
187	0x3d4221fe	0.0473957
188	0x3dc30919	0.095232196
189	0x39823413	0.0002483433
190	0xbdd861c8	-0.10565525
191	0xbdaa59ad	-0.083178855
192	0x3cdbf015	0.026847878
193	0xbe5a6e4a	-0.21331134
194	0x3deeddd3	0.11663403
195	0xbd8213f4	-0.06351462
196	0xbe35842c	-0.17726201
197	0xbe394f08	-0.18096554
198	0x3c9aa8ce	0.01887932
199	0xbd77ad96	-0.06046828
200	0xbc8a2339	-0.016862499
201	0x3d39931e	0.045306318
202	0xbe23bafa	-0.15989295
203	0x3dbedda2	0.09319617
204	0xbcb0f442	-0.021600846
205	0xbdca6b18	-0.09883708
206	0xbc895dbc	-0.016768329
207	0xbe10946a	-0.14119115
208	0xbe2a7c59	-0.16648997
209	0xbe382dbc	-0.17986196
210	0xbdab7eaa	-0.08373769
211	0xbb1ddd2a	-0.0024088123
212	0x3dc624f5	0.09675018
213	0xbe4cf516	-0.20015368
214	0xbe2ae10b	-0.1668741
215	0xbe17c2ba	-0.14820376
216	0xbdac0220	-0.08398843
217	0x3cba40a1	0.022735896
218	0xbe5b39bd	-0.21408744
219	0xbe0cd16f	-0.13751768
220	0x3c0c0cb7	0.008547953
221	0xbdf478a3	-0.11937072
222	0xbe418fb3	-0.18902473
223	0xbdb564f0	-0.08857143
224	0x3d54679c	0.051856622
225	0xbd93fa28	-0.07225448
226	0xbc9230db	-0.017845562
227	0x3dd41092	0.10354723
228	0xbd885fcd	-0.066588975
229	0xbddd6473	-0.10810175
230	0xbe4d279e	-0.20034644
231	0xbd2b9fe5	-0.041900534
232	0xbe6099f1	-0.21933724
233	0x3c4a3675	0.012342085
234	0xbe3bc839	-0.18338098
235	0x3d2f8fcb	0.04286174
236	0x3ad4838c	0.001621352
237	0xbe3e731a	-0.18598595
238	0xbe579620	-0.21053362
239	0x3bc80e15	0.0061051943
240	0xb8f46a2d	-0.000116546034
241	0xbd537088	-0.05162099
242	0xbdc58544	-0.09644559
243	0xbda0076f	-0.07813918
244	0x3d9ced45	0.07662443
245	0xbdd67003	-0.10470583
246	0xbe48eb0c	-0.19620913
247	0xbce9b75a	-0.028529812
248	0xbe082dec	-0.13298768
249	0x3cb869d7	0.022511406
250	0xbae0f3b6	-0.0017162475
251	0xbc34ae2b	-0.011027853
252	0xbe5f714d	-0.21820565
253	0x3c35fb0b	0.011107217
254	0xbc06cd37	-0.008227638
255	0x38eb555c	0.00011221573

feat.bias f4 [384]
0	0xbe020506	-0.12697229
1	0xbd9ac96a	-0.07557948
2	0xbdf5c902	-0.1200123
3	0xbe1e84c4	-0.15480334
4	0xbcbb9bfb	-0.022901526
5	0xbe0722cf	-0.13196872
6	0xbe104be8	-0.14091456
7	0xbe5ce493	-0.21571569
8	0xbdc838a0	-0.09776425
9	0xbe134fed	-0.14385958
10	0xbe545f21	-0.20739414
11	0xbe13bac1	-0.1442671
12	0x3cf86d0a	0.030325431
13	0xbe13afc4	-0.14422518
14	0xbe53ecec	-0.20695847
15	0xbdfd138b	-0.12357243
16	0xbd4d9f7f	-0.050200935
17	0xbd727df5	-0.059202153
18	0xbdd1d6c5	-0.10246042
19	0xbe04b2cd	-0.12958832
20	0xbdaf2a03	-0.08552935
21	0xbcb89983	-0.022534138
22	0xbe548a06	-0.20755777
23	0xbda12115	-0.07867638
24	0xbdc462f3	-0.095891856
25	0xbcd37dc5	-0.025816808
26	0xbcbb01d2	-0.022828016
27	0xbe461631	-0.19344403
28	0xbe30fc76	-0.17283806
29	0xbdcdb1a6	-0.100436494
30	0xbe7474a7	-0.23872624
31	0xbca22083	-0.019790893
32	0xbe3e379f	-0.18575905
33	0xbd081566	-0.033223532
34	0xbcf87b4d	-0.030332232
35	0xbe20d02e	-0.15704414
36	0xbe363c5a	-0.1779646
37	0xbdf1332b	-0.11777338
38	0xbcd3198b	-0.025769016
39	0xbcf1bbab	-0.029508432
40	0x3b87b4c5	0.0041414225
41	0xbd8a5aa0	-0.067555666
42	0x3cd94698	0.02652292
43	0xbe1991a9	-0.14996971
44	0xbd9704b8	-0.07373947
45	0xbc613c99	-0.013747358
46	0x3cc2735b	0.023736646
47	0xbe6ba5d6	-0.2301248
48	0xbdf42626	-0.11921339
49	0xbcbaece8	-0.022818044
50	0xbc069a34	-0.008215476
51	0xbda8fc0c	-0.08251199
52	0xbe6fbaed	-0.2341115
53	0xbdd4011e	-0.103517756
54	0xbddfc078	-0.109253824
55	0xbe1b5c6b	-0.15171973
56	0xbe2249be	-0.15848443
57	0xbd9abca1	-0.07555509
58	0xbe664978	-0.22488964
59	0xbd5dbf60	-0.054137588
60	0x3dbdff5f	0.09277224
61	0xbdcc1565	-0.09965018
62	0xbd8c5447	-0.06852012
63	0xbe57c49a	-0.21071091
64	0xbe5034c1	-0.20332624
65	0xbcb063dc	-0.021531992
66	0xbe510f5c	-0.20416015
67	0xbe12580b	-0.14291398
68	0xbd066cd6	-0.032818638
69	0xbe060d73	-0.13091068
70	0xbe61786d	-0.22018595
71	0xbd97b03c	-0.07406661
72	0xbe3731f4	-0.1789015
73	0xbe1e6efb	-0.15472023
74	0xbd932da3	-0.07186439
75	0xbe27b25e	-0.16376635
76	0xbe0dcccd	-0.13847657
77	0x3d73a67c	0.059484944
78	0xbe20c781	-0.15701105
79	0xbdf7116d	-0.120638706
80	0xbdf3f9e0	-0.11912894
81	0xbc138a13	-0.009005087
82	0x3d968ba2	0.073508516
83	0xbdee89ac	-0.116473526
84	0xbd2f17bd	-0.042747248
85	0xbd4d2865	-0.05008735
86	0xbde2896f	-0.1106137
87	0xbdc44297	-0.095830135
88	0x3d76c71a	0.06024847
89	0x3d5afd4b	0.053464215
90	0xbcbc03f6	-0.022951107
91	0xbe3acff2	-0.18243387
92	0xbd0f79fc	-0.035028443
93	0xbdd3644c	-0.103218645
94	0xbe44134a	-0.19147983
95	0xbdf5ff2f	-0.12011563
96	0xbe55af70	-0.20867705
97	0x3bd19bf2	0.006396764
98	0xbd21aca3	-0.03947128
99	0xbda80991	-0.0820495
100	0xbdb22f70	-0.08700454
101	0x3e0d0356	0.13770804
102	0xbe00b8f7	-0.12570558
103	0xbe16371b	-0.14669459
104	0xbce682c3	-0.028138524
105	0xbd442705	-0.047888774
106	0xbd745096	-0.059647165
107	0x3cd59725	0.026073048
108	0xbe1812de	-0.14850947
109	0x3c112733	0.0088594435
110	0xbde7324e	-0.11288892
111	0xbd8b647e	-0.06806277
112	0xbcfe014e	-0.031006481
113	0xbdac2bb1	-0.08406771
114	0x3d156fdc	0.03648363
115	0xbde5a7d3	-0.112136506
116	0xbdbbb7ac	-0.09165892
117	0xbe149190	-0.14508653
118	0xbdd017d4	-0.10160795
119	0xbe36acab	-0.17839305
120	0xbe32c329	-0.1745726
121	0xbe3ffe62	-0.18749383
122	0x3ccc86f9	0.024966704
123	0xbd89d520	-0.067301035
124	0xbd843645	-0.064556636
125	0x3b3b951e	0.0028622816
126	0xbe3794a6	-0.17927799
127	0xbe33dfdd	-0.17565866
128	0xbe25d943	-0.1619616
129	0xbcd2bba9	-0.025724249
130	0xbdc86ae7	-0.09786015
131	0xbd675f09	-0.056487117
132	0xbe13f945	-0.14450558
133	0xbd9af223	-0.07565715
134	0xbdf2d7b6	-0.1185755
135	0xbe072e04	-0.13201147
136	0xbdecd52d	-0.115640976
137	0xbcd48422	-0.025941912
138	0xbe12ce9a	-0.14336625
139	0xbe3fabb2	-0.1871784
140	0xbdd67186	-0.104708716
141	0xbd9a222d	-0.0752605
142	0xbe2b425e	-0.16724536
143	0xbd2b664b	-0.0418456
144	0xbceaa4ca	-0.02864303
145	0x3df7fd87	0.121089034
146	0xbd85a5cc	-0.06525764
147	0xbd77c941	-0.060494665
148	0xbe2e37b3	-0.17013435
149	0xbcb23d8a	-0.02175786
150	0xbd9426e6	-0.07233982
151	0xbd0e3adb	-0.034724098
152	0xbe13912c	-0.14410847
153	0xbdedb156	-0.1160609
154	0x3c076595	0.008263965
155	0xbe03d88f	-0.1287558
156	0xbdfbb588	-0.12290484
157	0x3c874d51	0.01651636
158	0xbe0177cd	-0.12643357
159	0xbdbefddc	-0.093257636
160	0xbe16eae0	-0.14738035
161	0xbdeca0e0	-0.11554122
162	0xbd300473	-0.042972993
163	0xbe596b63	-0.21232371
164	0xbe4fdf55	-0.20300038
165	0xbca1dcd4	-0.01975862
166	0xbc4f51fb	-0.012653823
167	0xbd5f9351	-0.05458385
168	0x3d813ff7	0.063110285
169	0xbe24493f	-0.16043566
170	0x3d075997	0.033044424
171	0xbe0b2da9	-0.13591637
172	0xbd4e7342	-0.050402887
173	0xbc8d9332	-0.017282102
174	0xbb1eb180	-0.0024214685
175	0xbdb7370f	-0.089460485
176	0xbe1edc61	-0.15513755
177	0x3b40663f	0.0029357818
178	0xbdc2a06f	-0.095032565
179	0xbcc0ecb8	-0.023550376
180	0xbe28e0e6	-0.16492042
181	0xbda52672	-0.080639735
182	0xbe43de88	-0.19127858
183	0xbd9ba841	-0.07600451
184	0xbe09a2d9	-0.13441028
185	0xbd98864c	-0.0744749
186	0xbdd44eaf	-0.1036657
187	0xbe1ee3a0	-0.1551652
188	0x3e48b3df	0.19599865
189	0xbe0ecf03	-0.13946156
190	0x3d15a877	0.036537614
191	0xbdd7d625	-0.10538892
192	0xbe562d32	-0.20915678
193	0xbd3683f7	-0.044559445
194	0xbe5f27cd	-0.21792527
195	0xbc0d25b5	-0.008614947
196	0xbd270dd9	-0.04078469
197	0xbe365822	-0.17807057
198	0xbe186175	-0.14880927
199	0xbe3b40d0	-0.18286443
200	0xbdb89b7c	-0.09014031
201	0xbe3468a1	-0.17618038
202	0xbe1c122e	-0.1524131
203	0xbd80c74d	-0.062880136
204	0xbc874f60	-0.016517341
205	0xbda44688	-0.08021265
206	0x39958fca	0.00028526626
207	0xbe259f18	-0.1617397
208	0xbe680ac9	-0.22660364
209	0xbcbca902	-0.023029808
210	0x3e186476	0.14882073
211	0xbdfdc8ab	-0.1239179
212	0xbdec73c6	-0.115455195
213	0xbdce120c	-0.10062036
214	0xbe58907f	-0.21148871
215	0xbe0c4aa6	-0.13700351
216	0x3cd3f6b5	0.025874475
217	0x3d203464	0.039112464
218	0x3c908285	0.017640362
219	0xbe6e89e9	-0.23294796
220	0xbc03594d	-0.008016896
221	0xbde8867e	-0.11353777
222	0xbe07a118	-0.13245046
223	0xbdb86075	-0.09002773
224	0xbdf7f1e8	-0.12106687
225	0xbd70a1f4	-0.0587482
226	0xbba6fbbb	-0.0050959266
227	0xbe2830d0	-0.1642487
228	0xbe4e0004	-0.20117193
229	0x3c9365f0	0.017992944
230	0xbd9c1ac7	-0.07622295
231	0xbe3ac51e	-0.18239257
232	0xbd9a976a	-0.07548411
233	0x3d4724d8	0.04861912
234	0xbe315bc9	-0.1732017
235	0xbc4af109	-0.012386569
236	0xbd4c0952	-0.049813576
237	0xbd33aee4	-0.04386796
238	0xbe3abbc0	-0.18235683
239	0xbe0041b3	-0.12525062
240	0x3d3d0207	0.04614451
241	0xbdc14c57	-0.09438389
242	0xbdd50295	-0.10400883
243	0xbe034d67	-0.12822495
244	0xbc963b65	-0.018338868
245	0xbe423a18	-0.18967474
246	0xbdd2820c	-0.10278711
247	0xbe4405d8	-0.19142854
248	0xbd894b4c	-0.06703815
249	0xbe4f5d1a	-0.20250359
250	0xbd564089	-0.05230764
251	0xbe30719a	-0.17230836
252	0xbc8ff17d	-0.017571205
253	0x3cea03cd	0.028566265
254	0xbdfd6e71	-0.12374581
255	0xbdc038c8	-0.0938583

edge.weight f4 [3, 128]
0	0x3d586106	0.052826904
1	0xbcbc4d14	-0.022985972
2	0x3cfdc290	0.030976564
3	0x3d074705	0.033026714
4	0x3cde4d54	0.027136482
5	0x3b437b63	0.0029828183
6	0x3d6543cd	0.055972863
7	0x3d861819	0.06547565
8	0x3d689043	0.056778204
9	0x3d0e6144	0.03476073
10	0x3d8a5b98	0.06755751
11	0xbd52bc51	-0.051449124
12	0x3d8345eb	0.0640982
13	0xbd6079c5	-0.05480363
14	0xbcd20e41	-0.025641562
15	0xbd383387	-0.044971015
16	0xbb3d240d	-0.00288606
17	0x3b0ac9af	0.0021177342
18	0x3db16e0e	0.086635694
19	0x3cc18aeb	0.023625812
20	0x3c4352ad	0.011921567
21	0x3d1ea2f1	0.03872961
22	0x3cc4867e	0.023989912
23	0x3dbde9ac	0.09273085
24	0x3ccae85d	0.024769003
25	0x3d836702	0.064161316
26	0x3cb86d11	0.022512944
27	0x3d3d40ba	0.046204306
28	0xbc134659	-0.00898894
29	0x3c22ee7c	0.009944554
30	0x3ddbb8ea	0.10728629
31	0x3a3d4586	0.00072201376
32	0x3c1f9d8d	0.009742153
33	0x3c2f9761	0.010717244
34	0xbcf4f30e	-0.029901054
35	0xbd3c74f5	-0.046009976
36	0x3daa3a8e	0.0831195
37	0x39ceef53	0.00039469692
38	0x3a49bbf3	0.0007695548
39	0x3dc05c02	0.09392549
40	0x3b22a90d	0.002482
41	0x3d96bb39	0.07359929
42	0xbc625d71	-0.0138162235
43	0x3d02b370	0.031909406
44	0xbdcf25ae	-0.10114609
45	0xbdb5f39b	-0.08884355
46	0x3d4fd095	0.05073603
47	0xbd5a26b6	-0.053259574
48	0xbe032119	-0.12805595
49	0xbdb5e1bb	-0.08880945
50	0xbbf28132	-0.007400655
51	0xbd8ae370	-0.067816615
52	0x3c74cc64	0.014941309
53	0x3c7ef3cc	0.015561055
54	0xbd3fe6b6	-0.046850882
55	0xbb551ad5	-0.0032517214
56	0x38c0604e	9.1732116e-05
57	0x3de700e4	0.11279467
58	0x3d87474b	0.06605395
59	0x3d13f488	0.036121875
60	0x3d974268	0.07385713
61	0x3a45d2f0	0.0007546386
62	0xbda3e35b	-0.08002349
63	0x3d73289c	0.0593649
64	0x3df3f797	0.119124584
65	0xbcb5212f	-0.02211055
66	0x3d91536b	0.07095989
67	0x3daa8f79	0.083281465
68	0x3db32e06	0.08749013
69	0xbd9fd242	-0.07803775
70	0xbb10ef8c	-0.0022115437
71	0x3c397c94	0.011321206
72	0x3d40954f	0.04701739
73	0xb9b63828	-0.00034755585
74	0xbdc3b44a	-0.09555872
75	0x3d4d4d74	0.050122693
76	0x3d9d74a1	0.07688261
77	0xbcb29032	-0.021797273
78	0x3c2b4813	0.010454196
79	0x3c5d5fb0	0.013511583
80	0x3a8bdcea	0.0010670696
81	0xbd3f02dc	-0.046633586
82	0x3c1d9ce9	0.00961993
83	0xba8d307d	-0.0010771897
84	0x3d69b084	0.057053104
85	0x3d64b840	0.055839777
86	0x3ca53d60	0.020170867
87	0x3cb828fb	0.022480479
88	0x3c7857b0	0.015157625
89	0x3d2db8d8	0.04241261
90	0x3cb2b896	0.021816533
91	0x3d8dd1d0	0.06924784
92	0x3d34442d	0.04401033
93	0x3d2c3387	0.042041328
94	0x3cd82877	0.026386483
95	0x3c9187de	0.017764982
96	0xba04587c	-0.00050485856
97	0x3bc509f3	0.006013149
98	0x3a4460d8	0.00074912375
99	0x3dd55198	0.104159534
100	0xbd566e22	-0.052351125
101	0xbd2dcd23	-0.04243196
102	0x3dca697a	0.09883399
103	0x3d697df1	0.057004873
104	0x3cc3fc76	0.023924094
105	0x394e2e57	0.00019662954
106	0x3de1764b	0.11008891
107	0x3b9b0cd9	0.004731756
108	0xba7d550c	-0.0009663857
109	0x3dba37d7	0.09092682
110	0xbd9cb302	-0.076513305
111	0x3aff4ea7	0.0019478396
112	0xbd986a04	-0.07442096
113	0xbdb2fcbe	-0.08739613
114	0x3d3bec80	0.04587984
115	0x3c54cb02	0.012987854
116	0x3d64a37f	0.055819985
117	0xbc948c6a	-0.01813336
118	0xbc1b4098	-0.00947585
119	0x3dba6860	0.09101939
120	0x3caa33ec	0.020776711
121	0x3c964244	0.018342145
122	0xb997de70	-0.00028966693
123	0x3cb0275a	0.02150314
124	0x3d3a7aaf	0.045527156
125	0x3dc21240	0.09476137
126	0xbd96eb84	-0.0736914
127	0x391dbf7e	0.00015044023
128	0x3d1f01ce	0.03882008
129	0x3d10b523	0.035328995
130	0xbbc59bb0	-0.0060305223
131	0x3c4f113f	0.012638389
132	0x3dbc58d2	0.09196629
133	0x3b909cf2	0.0044132406
134	0x3be2b738	0.006918814
135	0x3cc1254a	0.023577351
136	0xbd9ff67e	-0.078106865
137	0xbcf104e5	-0.02942128
138	0x3d2f3304	0.04277326
139	0xbdac9d7e	-0.08428477
140	0xbcd17e7b	-0.025573006
141	0x3da64336	0.08118288
142	0x3db71f95	0.08941571
143	0x3d346650	0.044042885
144	0xbb37604f	-0.0027980988
145	0x3c37020b	0.011169921
146	0x3d06d9ac	0.03292243
147	0xbd68e436	-0.056858264
148	0x3d449d7f	0.048001762
149	0x3dd5d6d6	0.10441367
150	0x3c188d2a	0.009311
151	0x3d268820	0.040657163
152	0x3dbe67e1	0.09297157
153	0x3d365030	0.044510067
154	0x3be36131	0.0069390764
155	0x3cbc1b1c	0.022962146
156	0x3d9ef3c9	0.07761342
157	0x3d89eb9a	0.067343906
158	0xbd215015	-0.039383013
159	0x39abab87	0.0003274346
160	0xbbc626a9	-0.006047089
161	0xbc83075e	-0.015994724
162	0x3b8c7263	0.004286097
163	0x3be6932e	0.007036588
164	0x3d9a8db6	0.075465605
165	0x3a38fe68	0.00070569525
166	0xbd939865	-0.07206801
167	0x3d6894ce	0.056782536
168	0x3abcbf54	0.0014400282
169	0xbd8a119b	-0.06741639
170	0x3d872819	0.06599445
171	0xbcdced75	-0.026968697
172	0xbde8628b	-0.113469206
173	0xbd66dd58	-0.056363434
174	0x3d9ffc20	0.07811761
175	0xbda57854	-0.080795914
176	0xbe02d401	-0.12776186
177	0xbdd4f270	-0.10397804
178	0xbcad56e4	-0.021159597
179	0xbda7f8f3	-0.0820178
180	0x3ab90cc0	0.001411818
181	0x3c3dd81c	0.011587169
182	0xbdbc0fbd	-0.09182689
183	0x3db52497	0.088448696
184	0x39a41e10	0.00031302916
185	0x3d8bc891	0.068253644
186	0xbced1d0b	-0.028944513
187	0x3d463fb9	0.048400614
188	0x3d688c4d	0.056774426
189	0x399a70ad	0.0002945712
190	0xbd89eacf	-0.06734239
191	0x3cedbc5e	0.029020485
192	0x3db1739f	0.08664631
193	0xba9e976d	-0.0012099572
194	0x3d5dfaac	0.054194137
195	0x3cf8698f	0.030323772
196	0xbd73e08b	-0.059540313
197	0xbd89305d	-0.06698678
198	0xbb3580ff	-0.0027695296
199	0x3d3b6095	0.045746405
200	0x3c0e7c88	0.008696683
201	0x3cac39d0	0.02102366
202	0xbda2faee	-0.07958017
203	0x3dd1a36e	0.1023625
204	0x3d90086e	0.07032858
205	0x3d62e2bc	0.055392012
206	0xbb5ebeaf	-0.0033988168
207	0xbcc63013	-0.024192845
208	0xbd51172c	-0.05104749
209	0x3d39a0d9	0.045319412
210	0xbd951877	-0.07280057
211	0xba750493	-0.000934669
212	0x3bb684fb	0.0055700517
213	0x3dd28703	0.10279658
214	0x3d6ebfee	0.058288507
215	0x3b86df97	0.0041160095
216	0x3cbc6171	0.022995682
217	0x3ae56740	0.0017502084
218	0x3de348b1	0.11097849
219	0xbd7cf27e	-0.061754696
220	0x3d6bad32	0.05753822
221	0xbccf975c	-0.025340728
222	0xbd47afcb	-0.048751634
223	0xbb166106	-0.0022946014
224	0x39e24c7b	0.00043163061
225	0xbd95ded9	-0.073178954
226	0x3cae476e	0.021274295
227	0x3ca90d83	0.020636326
228	0x3b7f8b99	0.0038993119
229	0x3d563bd0	0.052303135
230	0xbd195f66	-0.037444495
231	0x3d4c14fb	0.049824696
232	0xbd009a88	-0.031397372
233	0xba7c13a9	-0.00096159667
234	0xbb8e70a3	-0.0043469234
235	0x3c20a945	0.009805982
236	0xba2b1578	-0.00065263314
237	0x3c8f8fc1	0.017524602
238	0xbd438c31	-0.04774112
239	0x3a64ca6b	0.00087276724
240	0x3a1efc62	0.00060648296
241	0xbc7d4584	-0.015458468
242	0x3c9c75f5	0.019099215
243	0xbc2feb8f	-0.010737314
244	0x3d84d79a	0.06486435
245	0xbd99191f	-0.074754946
246	0x3d6e315e	0.05815255
247	0xbd403fe7	-0.046935942
248	0xbcda90ea	-0.026680429
249	0xb92c2b1f	-0.00016419262
250	0xb98d9fd4	-0.00027012697
251	0x3d0691bb	0.032853823
252	0x3cc7fd8b	0.02441289
253	0x3da51a16	0.08061616
254	0xbd865188	-0.065585196
255	0x399b2269	0.0002958954

edge.bias f4 [3]
0	0x3ba512d1	0.0050376435
1	0x3db3b26e	0.08774267
2	0x3e2b90c6	0.16754445
