kdd-backdooor/pre_arxiv/stored_weights/model_weights.pth (torch, 268039 bytes, 6 tensors)

layers.0.weight f4 [128, 128]
0	0xc18c8a0e	-17.56741
1	0x4183ce3b	16.475698
2	0xc18a7dba	-17.31139
3	0xc18fbd58	-17.967453
4	0x41920531	18.252535
5	0xc18da991	-17.707796
6	0xc18d4468	-17.658401
7	0xc18a7855	-17.308756
8	0x418c340d	17.525415
9	0x4186ee42	16.866337
10	0x40a23d49	5.069981
11	0xc18c7330	-17.556244
12	0x4186beae	16.843105
13	0x4193044b	18.377096
14	0xc18d4181	-17.656984
15	0xc135fd60	-11.374359
16	0x4132c04d	11.171948
17	0x418d37d8	17.652267
18	0xc14c2981	-12.760133
19	0xc18edf9e	-17.859188
20	0xc18d808e	-17.68777
21	0x4188da6b	17.10665
22	0xc18c797d	-17.55932
23	0x418e1e85	17.764902
24	0xc18e5911	-17.79349
25	0x418bd97c	17.481194
26	0x418f9c30	17.951263
27	0xc18cb989	-17.590593
28	0xc17e9f65	-15.913915
29	0x4189f1f1	17.243135
30	0xc18c50c8	-17.539444
31	0x418bad99	17.459764
32	0xc1837d0b	-16.436056
33	0x418cbf93	17.593542
34	0x418c368c	17.526634
35	0xc18cafc5	-17.585825
36	0xc18fd04f	-17.976713
37	0x41947735	18.558207
38	0x418e714d	17.805323
39	0x418ca35a	17.579762
40	0x418c624d	17.547998
41	0xc189a93b	-17.207632
42	0x418c983b	17.574331
43	0xc18f1803	-17.886724
44	0x41891479	17.134996
45	0x418edb81	17.85718
46	0x418d322b	17.649496
47	0xc17929de	-15.5727215
48	0x418cea35	17.614359
49	0x418dca1b	17.723684
50	0x418dedde	17.741146
51	0x41894b8a	17.161884
52	0xc18f88ad	-17.941736
53	0xc18f5f04	-17.921394
54	0xc19122b5	-18.141947
55	0x418db8f2	17.715305
56	0xc18df140	-17.742798
57	0xc18f4d1a	-17.912647
58	0xc1876bfd	-16.927729
59	0xc1848052	-16.562656
60	0x418c6756	17.550457
61	0x3f8c7181	1.0972139
62	0x418d9c80	17.701416
63	0xc1888ed7	-17.069746
64	0x4198ce75	19.10081
65	0x418c156e	17.510464
66	0xc18c1fa6	-17.515453
67	0x41892d5e	17.147152
68	0x418ccda2	17.600407
69	0xc18d62bf	-17.673216
70	0xc18604ff	-16.75244
71	0xc18920ca	-17.14101
72	0x4189524b	17.165182
73	0xc18cc9c9	-17.598528
74	0xc183d4ce	-16.478909
75	0xc18c6367	-17.548536
76	0x418f6bea	17.927692
77	0x418b0dc6	17.381725
78	0x418c809b	17.562796
79	0xc18ca9f3	-17.582983
80	0xc18d9e28	-17.702225
81	0x418c649b	17.549124
82	0x418cfe85	17.624277
83	0xc18e124e	-17.758938
84	0x418bf71e	17.495663
85	0x4189aac4	17.208382
86	0xc18c162f	-17.510832
87	0x418d2d2b	17.647055
88	0x418cf272	17.618382
89	0x41874329	16.907793
90	0x418c93f2	17.572239
91	0xc184141e	-16.509823
92	0x418a7970	17.309296
93	0xc18d6835	-17.675882
94	0xc189d790	-17.230255
95	0x412bf9ef	10.748519
96	0xc188b7e5	-17.089792
97	0x4190c71c	18.097221
98	0x4186d0dc	16.851982
99	0xc18add3b	-17.358023
100	0xc1854d78	-16.662827
101	0x418d126d	17.633997
102	0xc18d8666	-17.690624
103	0xc18e5dd0	-17.795807
104	0x418c0055	17.500162
105	0x418d1f17	17.64018
106	0xc18a1034	-17.257912
107	0x4184144c	16.50991
108	0x41898217	17.18852
109	0x418c2bf5	17.521463
110	0xc18cce82	-17.600834
111	0xc18da777	-17.70677
112	0x418a3a02	17.278324
113	0x418b126a	17.383991
114	0x418cea43	17.614386
115	0x418e8899	17.816698
116	0x418c6408	17.548843
117	0x41656a88	14.338509
118	0xc1561dc8	-13.382271
119	0xc0bf5bc5	-5.9799523
120	0xc18e331e	-17.77496
121	0xc18b198c	-17.387474
122	0x418dafc5	17.710825
123	0xc18e1c9b	-17.763968
124	0x418bb905	17.465342
125	0x418aa0ee	17.328579
126	0xc18cb8bf	-17.590208
127	0xc18d30df	-17.648863
128	0xc18a8bea	-17.318317
129	0x41824617	16.284224
130	0xc18825de	-17.01849
131	0xc18e2330	-17.767181
132	0x4190feab	18.12435
133	0xc18ad9b8	-17.356308
134	0xc18a79fb	-17.30956
135	0xc1881b0d	-17.013208
136	0x418970e5	17.180124
137	0x41847028	16.554764
138	0x40a07d91	5.015328
139	0xc18aed0b	-17.365744
140	0x41845e8a	16.546162
141	0x4191c34e	18.220364
142	0xc18b6d7e	-17.428463
143	0xc13491c4	-11.285587
144	0x4131d782	11.115114
145	0x418bb0ad	17.461267
146	0xc1456aeb	-12.338603
147	0xc18d5d90	-17.670685
148	0xc18b1d15	-17.3892
149	0x4185f6ba	16.745472
150	0xc18aaeec	-17.335411
151	0x418c7819	17.558641
152	0xc18d16c9	-17.636126
153	0x4188e889	17.113543
154	0x418e0fb7	17.757673
155	0xc18b20d1	-17.391024
156	0xc1783af7	-15.514396
157	0x41872983	16.89527
158	0xc189bf4b	-17.218405
159	0x4189ee3d	17.241327
160	0xc180f7fa	-16.121082
161	0x418a854e	17.31509
162	0x4189918c	17.196068
163	0xc18a93ec	-17.322227
164	0xc18e2c77	-17.771711
165	0x4192bd26	18.342358
166	0x418c8462	17.56464
167	0x418ae842	17.363407
168	0x418a01a3	17.2508
169	0xc1880ce0	-17.006287
170	0x418aad48	17.33461
171	0xc18dce98	-17.725876
172	0x41876b4b	16.92739
173	0x418cf4b8	17.619492
174	0x418c2217	17.516645
175	0xc1747b87	-15.280158
176	0x418a4090	17.281525
177	0x418bcc79	17.47484
178	0x418c8676	17.565655
179	0x4186704b	16.80483
180	0xc18db0d4	-17.711342
181	0xc18d7491	-17.681917
182	0xc18f17a6	-17.886547
183	0x418ad881	17.355715
184	0xc18c8f5f	-17.570005
185	0xc18d0da3	-17.631659
186	0xc185d74f	-16.730131
187	0xc183b43e	-16.463009
188	0x418a1b4f	17.263334
189	0x3f8df4f0	1.1090374
190	0x418b5f61	17.421572
191	0xc185d3b8	-16.728378
192	0x4193e6fb	18.487783
193	0x418a5d01	17.295412
194	0xc189a7a6	-17.20686
195	0x41876d21	16.928286
196	0x418b5abd	17.419306
197	0xc18b1239	-17.383898
198	0xc183b5a9	-16.463701
199	0xc187319b	-16.899221
200	0x41878354	16.939125
201	0xc18ad42b	-17.353598
202	0xc18133b0	-16.150238
203	0xc189ae09	-17.209978
204	0x418c83a4	17.564278
205	0x41882076	17.01585
206	0x418b5292	17.415318
207	0xc18af511	-17.369661
208	0xc18b852a	-17.440022
209	0x418a028f	17.25125
210	0x418ae1c4	17.360237
211	0xc18be0f0	-17.484833
212	0x4189b288	17.212173
213	0x4186bf2c	16.843346
214	0xc189cd98	-17.225388
215	0x418b8d9e	17.444149
216	0x418a4c51	17.287264
217	0x4185b6af	16.714201
218	0x418ac11e	17.344296
219	0xc1823b29	-16.278887
220	0x41889e0f	17.077177
221	0xc18a5795	-17.292765
222	0xc1885ce9	-17.045366
223	0x412bc127	10.734656
224	0xc186acd9	-16.834398
225	0x418e003d	17.750116
226	0x418464f8	16.549301
227	0xc187f74d	-16.995752
228	0xc18308d3	-16.379309
229	0x418b2218	17.391647
230	0xc18bbcf6	-17.467266
231	0xc18b7766	-17.4333
232	0x418a2808	17.269547
233	0x418ba59f	17.45587
234	0xc187d06c	-16.976768
235	0x41811894	16.137001
236	0x418645ed	16.784143
237	0x4189aeed	17.210413
238	0xc18a8564	-17.315132
239	0xc18bb523	-17.463446
240	0x4187737a	16.931385
241	0x418834ad	17.02572
242	0x418b5d96	17.420696
243	0x418bfc19	17.498095
244	0x418afdbe	17.373898
245	0x41635226	14.207556
246	0xc153d4e1	-13.239472
247	0xc0ba46bd	-5.821135
248	0xc18c5555	-17.541666
249	0xc188a310	-17.07962
250	0x418bd970	17.48117
251	0xc18be0e4	-17.48481
252	0x418997c4	17.199104
253	0x4187d935	16.981058
254	0xc18b5d55	-17.420572
255	0xc18bab40	-17.458618

layers.0.bias f4 [128]
0	0x418cf956	17.621746
1	0x418b7b1d	17.435114
2	0x418a1900	17.262207
3	0x418aca1c	17.348686
4	0x418ac571	17.346407
5	0x418a8d3f	17.318968
6	0xae30deae	-4.0215546e-11
7	0x418c0af4	17.505348
8	0x418e6e91	17.803988
9	0x418b1beb	17.388632
10	0x418b5dd2	17.42081
11	0x418a0ade	17.255306
12	0xb29b154f	-1.8054065e-08
13	0xb81e465c	-3.7735663e-05
14	0x40fc9b40	7.8939514
15	0x418ad13a	17.352161
16	0x418b377e	17.402096
17	0xb4a63def	-3.0964972e-07
18	0x418b678c	17.42556
19	0x418b1afc	17.388176
20	0x418d106c	17.633018
21	0x418b1e00	17.389648
22	0x418af354	17.368813
23	0x418a4413	17.28324
24	0x418b5a42	17.419071
25	0x418ad148	17.352188
26	0xb63b7858	-2.793522e-06
27	0x418bddae	17.483242
28	0x418a44d6	17.283611
29	0x418af4fe	17.369625
30	0x418a0dba	17.256702
31	0xba86ae20	-0.0010275282
32	0x418c47a6	17.534985
33	0x418d447a	17.658436
34	0x418b6a27	17.426832
35	0x418ae584	17.362068
36	0x418bcf56	17.476238
37	0xaf51bc24	-1.907528e-10
38	0x418b06c3	17.378302
39	0xb40838c2	-1.2686635e-07
40	0xb43aa5f5	-1.7382975e-07
41	0x418b2e14	17.3975
42	0x41698192	14.594133
43	0x418b2439	17.392687
44	0x418a8e1f	17.319395
45	0x418a7eac	17.311852
46	0x418ab66f	17.339079
47	0x418b4200	17.407227
48	0x418ab627	17.338942
49	0x418abd2b	17.342367
50	0x418aea9d	17.364557
51	0x4141cc07	12.112311
52	0x41897a46	17.184704
53	0x418a9c52	17.326328
54	0xad078d2f	-7.705211e-12
55	0x418aa8e9	17.332476
56	0x418a4cc2	17.28748
57	0x418b16ac	17.38607
58	0x418da6d9	17.706469
59	0x418ece9a	17.85088
60	0xad227b8c	-9.236067e-12
61	0x418abedb	17.343191
62	0x4181540b	16.166037
63	0x418c19eb	17.512655
64	0x418a496d	17.285852
65	0x418cbd5a	17.592457
66	0x418a1225	17.25886
67	0x418a66f3	17.300268
68	0x418c43c2	17.533085
69	0x418b6749	17.425432
70	0x418af249	17.368303
71	0x416d5404	14.833012
72	0x418b1053	17.38297
73	0x418dc230	17.719818
74	0x4189cc72	17.224827
75	0x418a8033	17.312597
76	0x418a4e14	17.288124
77	0x418b6863	17.42597
78	0x418eaf67	17.835646
79	0x418abda4	17.342598
80	0x4087d5b9	4.244839
81	0x418e1351	17.759432
82	0x418b497b	17.41088
83	0x418d38a8	17.652664
84	0x418af251	17.368319
85	0x418aae7f	17.335203
86	0x418b6831	17.425875
87	0x418a7a34	17.30967
88	0x418b7f60	17.437195
89	0x418d3e71	17.655489
90	0x418b237d	17.392328
91	0x418b1a06	17.387707
92	0x418b9993	17.449987
93	0x418ab9c7	17.340712
94	0x4189d222	17.227604
95	0x4176b76c	15.419781
96	0x418a8e6d	17.319544
97	0x4189cf91	17.22635
98	0x418a3b29	17.278887
99	0x41895645	17.167124
100	0x418a33f1	17.275362
101	0x418a3714	17.276894
102	0x4187651f	16.924376
103	0x418a8fae	17.320156
104	0x418a3491	17.275667
105	0x2ccf1cfc	5.8865118e-12
106	0x418a6451	17.298983
107	0x41899022	17.195377
108	0x418a3b6c	17.279015
109	0x418ed4f0	17.853973
110	0x418c0e34	17.506935
111	0x418ab25d	17.337091
112	0x418a763f	17.307737
113	0xb2e95d01	-2.7167063e-08
114	0x418a166d	17.26095
115	0x368f8b17	4.2779243e-06
116	0x418adcaf	17.357756
117	0x418a737b	17.306387
118	0x418b9402	17.44727
119	0x418ab163	17.336615
120	0x3704fd9c	7.926861e-06
121	0x418af1fe	17.36816
122	0x418a2ede	17.272884
123	0x418b47f1	17.410128
124	0x41801dec	16.01461
125	0x418abe82	17.343021
126	0x418b95a7	17.448072
127	0x418a0be9	17.255816

feat.weight f4 [384, 128]
0	0xbb381af5	-0.002809224
1	0xbaad840a	-0.0013238203
2	0xba500642	-0.0007935503
3	0xba563a66	-0.0008172154
4	0xba41df0f	-0.0007395604
5	0xba51d708	-0.00080047594
6	0x0492f54d	3.454971e-36
7	0xbaa5ad2f	-0.0012640114
8	0xba855588	-0.0010172585
9	0xba3f1c54	-0.0007290293
10	0xba6f4478	-0.0009127329
11	0xba436f4e	-0.00074552454
12	0x08c81ff7	1.2044577e-33
13	0x079ce394	2.360603e-34
14	0xbb007659	-0.001960179
15	0xba49970f	-0.0007690051
16	0xbaaee271	-0.0013342631
17	0x81997e47	-5.638452e-38
18	0xbab2b131	-0.001363313
19	0xba5446ae	-0.00080976903
20	0xbb7b0d16	-0.003830736
21	0xbaa37fcf	-0.0012474003
22	0xba434fdc	-0.00074505596
23	0xba3e337f	-0.00072555983
24	0xbaa05368	-0.0012231888
25	0xba545f16	-0.0008101327
26	0x05bce17f	1.7762269e-35
27	0xba8c7718	-0.0010716645
28	0xba46dd4a	-0.0007586075
29	0xba42272d	-0.00074063503
30	0xba3e8dad	-0.0007269036
31	0x0ab577eb	1.7474774e-32
32	0xba9ad87e	-0.0011813787
33	0xbb580ac9	-0.0032965413
34	0xba82e319	-0.0009985893
35	0xba60a9c8	-0.0008570221
36	0xbb1da4a0	-0.0024054423
37	0x8508b5ee	-6.4281045e-36
38	0xbb124c10	-0.0022323169
39	0x87c724e4	-2.9963874e-34
40	0x85360e1c	-8.56019e-36
41	0xba4a715b	-0.000772258
42	0xb9a0e18f	-0.00030685632
43	0xbab3bd59	-0.0013713046
44	0xba57b766	-0.00082289276
45	0xba471d11	-0.0007595579
46	0xba5652da	-0.0008175798
47	0xba59da0e	-0.0008310386
48	0xba4b9b37	-0.0007766964
49	0xba534f8d	-0.0008060865
50	0xba43a22f	-0.0007462827
51	0x3a006aa1	0.00048987014
52	0xba525445	-0.00080234214
53	0xba3e8eef	-0.00072692236
54	0x0592c33c	1.3801492e-35
55	0xba4bf484	-0.0007780271
56	0xba90c81f	-0.0011045969
57	0xba59ce50	-0.0008308636
58	0xbb7a988f	-0.0038237905
59	0xb991913b	-0.0002776476
60	0x8611d0e1	-2.742493e-35
61	0xba6a9ede	-0.00089500647
62	0xba52a564	-0.00080355094
63	0x3ab99310	0.0014158208
64	0xba4ec7b8	-0.0007888037
65	0xba5baeaf	-0.0008380217
66	0xba475dfa	-0.0007605251
67	0xba444d81	-0.00074883556
68	0xbb751b49	-0.0037400296
69	0xba431b5a	-0.00074427354
70	0xba486fff	-0.0007646083
71	0xba45163e	-0.0007518268
72	0xba4472b4	-0.0007493899
73	0xbb30ae2a	-0.0026959279
74	0xba433e0a	-0.0007447904
75	0xbac1e743	-0.0014793653
76	0xba770191	-0.00094225357
77	0xba96d6bb	-0.0011508086
78	0x3acca5f9	0.0015613429
79	0xba440585	-0.0007477629
80	0xb9822ed8	-0.00024830434
81	0x3ac649a7	0.0015128151
82	0xba5c9704	-0.0008414837
83	0x3acb20f4	0.0015497492
84	0xba454573	-0.00075253024
85	0xba4be1c7	-0.0007777479
86	0xba599d65	-0.00083013467
87	0xba433903	-0.0007447155
88	0xba8b53fb	-0.0010629887
89	0xbb4dd9e2	-0.0031410386
90	0xba8d2257	-0.001076768
91	0xba5c102e	-0.0008394745
92	0xba6840d3	-0.0008859757
93	0xba40ae24	-0.0007350168
94	0xba492132	-0.0007672488
95	0xba93a3a9	-0.0011263984
96	0xba4af25d	-0.00077418034
97	0xba43db29	-0.0007471317
98	0xba5211cc	-0.0008013516
99	0xba5453c5	-0.0008099641
100	0xba4b26b5	-0.0007749603
101	0x39d8486c	0.0004125269
102	0xba8635a2	-0.0010239372
103	0xba87c7f3	-0.0010359272
104	0xba52e299	-0.000804463
105	0x9caf9dcd	-1.1621319e-21
106	0xba4f52b7	-0.0007908749
107	0xba3f8f88	-0.00073074596
108	0xba4b8183	-0.0007763134
109	0x3adfdb61	0.001707893
110	0xba974f98	-0.0011544107
111	0xba51b971	-0.000800035
112	0xba4c1554	-0.00077851606
113	0x03f581a5	1.4429571e-36
114	0xba609ceb	-0.00085683045
115	0x999a2e43	-1.5941912e-23
116	0xba6c5c62	-0.00090164517
117	0xba99d9b0	-0.001173785
118	0xba842016	-0.0010080363
119	0xba8a08ac	-0.0010531149
120	0x96b6b0f3	-2.9515356e-25
121	0xba45cf2c	-0.00075458246
122	0xba43035c	-0.000743916
123	0xbaaf054c	-0.0013353019
124	0xb9dc846d	-0.00042060335
125	0xba543b48	-0.0008095992
126	0xba72b320	-0.0009258259
127	0xba4bc326	-0.0007772915
128	0xb582c063	-9.741747e-07
129	0xbb493c62	-0.0030706157
130	0xbb3b4bda	-0.0028579147
131	0xb76fdb9a	-1.429664e-05
132	0xbaa410f7	-0.0012517263
133	0xb8194bbc	-3.6548576e-05
134	0x04fc5494	5.9322588e-36
135	0x34a8b314	3.1422735e-07
136	0x33c150b2	9.001941e-08
137	0xba59ce1e	-0.0008308607
138	0x33d4841a	9.8960484e-08
139	0xba58f273	-0.0008275874
140	0x872a6d5c	-1.2821516e-34
141	0x05bdc3a8	1.7845347e-35
142	0x34ccb84f	3.8132063e-07
143	0xb945885b	-0.0001883818
144	0xbc414781	-0.011796833
145	0x850a4468	-6.501293e-36
146	0x34a0c8d5	2.9948447e-07
147	0xb764104b	-1.35936525e-05
148	0xb5adc505	-1.2946845e-06
149	0x34a044ae	2.9852293e-07
150	0xba4fc633	-0.00079259573
151	0xbb081171	-0.002076235
152	0x34985d06	2.837989e-07
153	0xbaf50d94	-0.0018696063
154	0x067dac6f	4.7710696e-35
155	0x348d1403	2.6277857e-07
156	0xbb1632ff	-0.002291858
157	0xb9e3249d	-0.00043324093
158	0xba332d3c	-0.00068350486
159	0x89be9613	-4.5881965e-33
160	0x34421ea5	1.8078806e-07
161	0x355b17eb	8.161866e-07
162	0x346ad33e	2.1869798e-07
163	0x3384ab4d	6.1778884e-08
164	0x35593274	8.091222e-07
165	0x85a36d90	-1.5368693e-35
166	0xbb86cce8	-0.004113782
167	0x862498b2	-3.0957155e-35
168	0x0498e9cd	3.594974e-36
169	0xb909d6a6	-0.00013145301
170	0xb461fab1	-2.1045959e-07
171	0xbb932c93	-0.0044913976
172	0xba87dded	-0.0010365822
173	0xbab05d7e	-0.0013455597
174	0xb7379865	-1.0943132e-05
175	0xb599f261	-1.146993e-06
176	0xb8ec1580	-0.000112573616
177	0xb74798b8	-1.1896882e-05
178	0xb9d94a52	-0.00041444838
179	0xb4688d56	-2.1658101e-07
180	0xb808a955	-3.258263e-05
181	0xbb243494	-0.0025055753
182	0x858de9d8	-1.3345477e-35
183	0xbad5c8ca	-0.001631045
184	0xbb8bfd75	-0.004272158
185	0xb3aba624	-7.993029e-08
186	0x3583d639	9.822608e-07
187	0xb4b5a09c	-3.3830736e-07
188	0x8601dec5	-2.442587e-35
189	0x340b507a	1.2974661e-07
190	0x321dbed3	9.181991e-09
191	0xb5159cde	-5.57351e-07
192	0xb8d4c7b9	-0.00010146149
193	0x31c37c80	5.689401e-09
194	0xba981ab9	-0.0011604644
195	0xba27a9ab	-0.0006395827
196	0x35459b0f	7.361386e-07
197	0xba8fefe8	-0.0010981532
198	0xbb3104dd	-0.0027010955
199	0x32b909f5	2.1541362e-08
200	0xbae56b37	-0.0017503266
201	0xb3ac52eb	-8.024457e-08
202	0xbacad423	-0.0015474599
203	0xbc01622a	-0.007896939
204	0xbaff7987	-0.0019491174
205	0xbb1b6266	-0.0023709773
206	0xb51a1987	-5.740662e-07
207	0xba11dd0e	-0.0005564251
208	0x33807ed0	5.9835315e-08
209	0xb4cd0453	-3.8187372e-07
210	0x338230d0	6.062476e-08
211	0xb5176ae7	-5.6407447e-07
212	0xb9d8e606	-0.0004137011
213	0xbb45e8a9	-0.003019849
214	0xb595bd67	-1.1156488e-06
215	0xbb342391	-0.002748702
216	0xbb52bf84	-0.003215761
217	0x35301080	6.558912e-07
218	0x3451fd2b	1.9556744e-07
219	0x3275ac7e	1.4300097e-08
220	0x33ad18d5	8.060457e-08
221	0xbb19de18	-0.0023478325
222	0xbafab4cd	-0.0019127369
223	0x349a1e0b	2.8706594e-07
224	0xba75f210	-0.00093820784
225	0xba9518c1	-0.0011375175
226	0xb82c6225	-4.10994e-05
227	0xb78e098f	-1.693217e-05
228	0xb8cb6c62	-9.699982e-05
229	0xb500956f	-4.790117e-07
230	0x34153d30	1.3898966e-07
231	0xbb37e597	-0.002806043
232	0xbb0891ee	-0.0020838934
233	0x1298bcf1	9.639126e-28
234	0xbb266455	-0.0025389392
235	0xbabf90a5	-0.0014615251
236	0xb99479b3	-0.00028319433
237	0xb506aa89	-5.016705e-07
238	0x3447afc3	1.8597261e-07
239	0xbb9dd98e	-0.0048171943
240	0xbb698881	-0.0035634341
241	0x83928c2d	-8.6132915e-37
242	0x339d2072	7.316784e-08
243	0x0d98a4ad	9.4073675e-31
244	0x33d483dc	9.8960044e-08
245	0xbb039db6	-0.0020083017
246	0x342b12c4	1.5932443e-07
247	0xbb47da75	-0.00304952
248	0x0bff954d	9.844707e-32
249	0xbb0a322f	-0.002108704
250	0xba9b9507	-0.0011869975
251	0xbbb06b1a	-0.0053838613
252	0xb4a1a6db	-3.010999e-07
253	0xb726341b	-9.906503e-06
254	0x34267493	1.5502364e-07
255	0xb87bf756	-6.0073413e-05

feat.bias f4 [384]
0	0xbb5842be	-0.0032998766
1	0xbc462dea	-0.012095908
2	0xbc525672	-0.012837993
3	0xbb3b1f29	-0.0028552508
4	0xbacf3d8a	-0.0015811187
5	0xbbb26fba	-0.0054454478
6	0xbbf7cbd5	-0.0075621405
7	0xbc48f764	-0.012266014
8	0xbae0cd99	-0.0017151117
9	0xba349864	-0.0006889163
10	0xbc343963	-0.01100001
11	0xbc057b4d	-0.008147073
12	0xb86b3844	-5.6080768e-05
13	0xbabc9453	-0.0014387466
14	0xbc1bc297	-0.009506843
15	0xbaa02a06	-0.0012219555
16	0xbae9a87a	-0.0017826699
17	0xbc795d8e	-0.015220059
18	0xbab31b83	-0.0013664815
19	0xbb9a3548	-0.0047060587
20	0xbbd5134e	-0.0065025454
21	0xb81fd6e8	-3.81087e-05
22	0xbc7726d5	-0.015084942
23	0x3af081bd	0.0018349212
24	0xba8d5979	-0.0010784111
25	0xbbb5b06d	-0.005544713
26	0x3a8545bd	0.0010167878
27	0xbcb33f0f	-0.021880655
28	0xbba258a3	-0.004954414
29	0xbc873b60	-0.016507804
30	0xbbb02986	-0.0053760437
31	0xba2a1640	-0.0006488301
32	0xbb077ffd	-0.0020675652
33	0x3c6f8b3c	0.014620598
34	0xb8ad1d3f	-8.25473e-05
35	0xbbd897fe	-0.0066099158
36	0xbb2746a2	-0.0025524278
37	0xb9718c5c	-0.00023035839
38	0x3c6a5cdc	0.014304366
39	0xb9982c36	-0.0002902464
40	0xb8bcc9e8	-9.0021465e-05
41	0xbb203423	-0.0024445138
42	0xbcdee244	-0.027207501
43	0xbca3460c	-0.019930862
44	0xbad18f1f	-0.0015988088
45	0xba25db5a	-0.00063269364
46	0xba7f0d86	-0.0009729493
47	0xb948690d	-0.00019112621
48	0xbb1a8551	-0.0023577998
49	0xbdcbd394	-0.09952465
50	0xba0da492	-0.0005403246
51	0xbad694b0	-0.0016371217
52	0xbc1e2b22	-0.009653838
53	0xbae1c0d5	-0.0017223606
54	0xbb0d707f	-0.0021581945
55	0xba83f886	-0.0010068573
56	0xbb5c137c	-0.003358095
57	0xba7dfa12	-0.00096884475
58	0xb812bacf	-3.498309e-05
59	0xbb136f07	-0.0022496597
60	0xbc786849	-0.015161582
61	0xbd1cbc51	-0.03826553
62	0xbad45121	-0.0016198495
63	0xbb3938f1	-0.00282627
64	0xb9e14a86	-0.00042970869
65	0xb9b3cee0	-0.00034295674
66	0xbb015c15	-0.0019738723
67	0xbb47115e	-0.0030375342
68	0x3e10e9d0	0.14151692
69	0xbbf8fe3c	-0.0075986665
70	0xbaa92c65	-0.0012906907
71	0xbcbb90a1	-0.022896113
72	0x3bdad95d	0.0066787438
73	0xbc9d81ae	-0.019226875
74	0xbb8f2483	-0.004368366
75	0xbb96217d	-0.004581629
76	0xb9c842d2	-0.00038196758
77	0xb8519212	-4.996552e-05
78	0xbda4b85b	-0.080429755
79	0xbbbd99e1	-0.005786166
80	0xbb0073f4	-0.0019600363
81	0xbe0ab483	-0.13545422
82	0xbc84bd47	-0.016203536
83	0xbc70b451	-0.014691428
84	0xbac04f85	-0.0014672136
85	0x3b6303f5	0.003463981
86	0xbc930927	-0.0179487
87	0xba9b7695	-0.0011860902
88	0x3c942f64	0.018089004
89	0xba7f0825	-0.00097286917
90	0xbe6b1834	-0.22958452
91	0xb9d4f24a	-0.0004061631
92	0xbbfa4c57	-0.007638495
93	0xbafd5290	-0.0019326974
94	0xbba01f26	-0.0048865257
95	0xba09ea01	-0.00052610046
96	0xba6afd05	-0.00089640944
97	0xbb030d73	-0.001999703
98	0xbaa0f11b	-0.0012278886
99	0xba4d30f2	-0.0007827423
100	0xba5a6b03	-0.0008331986
101	0x3af59b37	0.0018738274
102	0xbbc4164e	-0.0059841042
103	0xbb1bb51e	-0.0023759077
104	0xb92df14b	-0.00016588454
105	0xbd911e6f	-0.07085883
106	0xbc0cd43a	-0.008595521
107	0xb82f3c71	-4.177954e-05
108	0xba89bedb	-0.001050915
109	0xb9506a11	-0.00019875939
110	0xbc866a43	-0.016408091
111	0xbbd7b37c	-0.0065826755
112	0xbceaed34	-0.02867756
113	0xbd2a4e35	-0.04157849
114	0xba274553	-0.00063808745
115	0xb9fd9e70	-0.00048373966
116	0xb9c74703	-0.00038009146
117	0xba92b963	-0.0011194166
118	0xbda80dba	-0.08205743
119	0xb9e998d5	-0.00044555092
120	0xbd44cfaf	-0.048049625
121	0xbb23bd01	-0.0024984481
122	0xbcdb9fd6	-0.026809614
123	0xbab92bbc	-0.0014127414
124	0xbac89288	-0.0015302459
125	0xbb258251	-0.0025254677
126	0xbb01e2fb	-0.0019819129
127	0xbb8ed585	-0.0043589496
128	0xbbf14e67	-0.0073640826
129	0xbcb66a26	-0.022267412
130	0xbd207a8a	-0.039179362
131	0xbb9dd8fc	-0.0048171263
132	0xbc2b9562	-0.010472627
133	0xbc58b058	-0.013225637
134	0xbd437691	-0.047720496
135	0xbd15695a	-0.036477424
136	0xbc2cb750	-0.010541752
137	0xbd948c09	-0.07253272
138	0x3b480756	0.003052195
139	0xbd73fbc7	-0.059566285
140	0xbc28820f	-0.010284915
141	0xbe7dc8f1	-0.24783684
142	0xbcdd75fc	-0.027033798
143	0xbca39221	-0.01996714
144	0xbc31d0d9	-0.010853016
145	0x3ba4779f	0.0050191428
146	0xbdc5717b	-0.09640785
147	0xbc7794a8	-0.015111126
148	0xbd1be0c4	-0.03805615
149	0x3d5a9dac	0.053373024
150	0xbd516f05	-0.051131267
151	0xbd8d9f46	-0.069151446
152	0xbbf8bdfc	-0.0075910073
153	0x3c9e6b62	0.019338313
154	0xbd997c72	-0.07494439
155	0xbd9d2508	-0.07673079
156	0xbbc56136	-0.0060235513
157	0xbd5e4fd8	-0.054275364
158	0xbc9001be	-0.017578956
159	0xbb41020c	-0.0029450683
160	0xbe16495b	-0.1467642
161	0xbb1866c5	-0.0023254615
162	0xbd84d764	-0.06486395
163	0xbd1930a5	-0.037399907
164	0xbc2fca03	-0.010729316
165	0xbc807e58	-0.015685245
166	0xbb1a1b00	-0.0023514628
167	0xbc2501f1	-0.010071264
168	0xbc5c6f56	-0.013454279
169	0xbc8b7ac6	-0.017026316
170	0xbb759d39	-0.0037477745
171	0xba59ffc6	-0.0008316006
172	0xbb47f08e	-0.0030508372
173	0xbcde432e	-0.027131643
174	0xbb87a40b	-0.0041394285
175	0xbb853af3	-0.004065865
176	0x3cbc7ae7	0.023007823
177	0xbe1edc2d	-0.15513678
178	0xbc08a8f9	-0.0083410675
179	0xbd92208b	-0.07135113
180	0xbc462483	-0.012093666
181	0xbc0484f4	-0.008088339
182	0xbc0376a2	-0.00802389
183	0xbb448510	-0.0029986538
184	0xbbef06b0	-0.0072944984
185	0xbc3b4f12	-0.011432426
186	0xb9e361c5	-0.00043369658
187	0xbad6de41	-0.0016393141
188	0xbd16555f	-0.03670251
189	0xbabf386c	-0.0014588959
190	0xbc0fbda3	-0.00877324
191	0xbc03d9b9	-0.008047515
192	0xbb53fdf7	-0.003234742
193	0xbbcb68ab	-0.0062075458
194	0xbca606a0	-0.02026683
195	0xbbd4d60d	-0.0064952434
196	0xbc95d872	-0.018291686
197	0xbd3c673e	-0.045996897
198	0xbc7c1324	-0.015385423
199	0xbbc8621a	-0.0061152102
200	0xbd09c83f	-0.033638235
201	0xbd072da9	-0.03300253
202	0xbbbd5680	-0.005778134
203	0xbd25522e	-0.040361576
204	0xbd5a18c1	-0.053246263
205	0x3c6a4086	0.01429761
206	0xbbc758cb	-0.006083583
207	0xbbd34ee1	-0.006448612
208	0xbbc18c37	-0.0059066075
209	0xbbcbb530	-0.0062166676
210	0x3c59264b	0.013253759
211	0xbd127c2d	-0.035762955
212	0xbb04bdd3	-0.0020254746
213	0xba1cc722	-0.0005980601
214	0xbda2fa06	-0.079578444
215	0xbac9cd19	-0.0015396207
216	0x3c85ae0e	0.016318347
217	0x3c7cb67d	0.015424368
218	0x3cbaa3c9	0.022783177
219	0xbb2e2825	-0.002657422
220	0x39e96f8c	0.00044524332
221	0xbc05446a	-0.008133987
222	0xba8139cc	-0.0009859144
223	0xba1b60c6	-0.0005927201
224	0xbc3fa701	-0.011697532
225	0xbd0c79a7	-0.034295704
226	0x3ba4ca07	0.0050289663
227	0xbc2770c6	-0.010219758
228	0xbbe762dc	-0.0070613455
229	0x3c655916	0.0139982905
230	0xbc93a02e	-0.018020716
231	0xbc4e7cf1	-0.012603031
232	0x3d49ea47	0.04929569
233	0xbd4014c2	-0.046894796
234	0xbcac3283	-0.02102018
235	0xbd4d1cbb	-0.050076228
236	0xbc8abedc	-0.016936712
237	0x3c92f1e0	0.0179376
238	0xbd2d10e5	-0.04225244
239	0xbc5c4cfb	-0.013446088
240	0xb9cdfbf4	-0.00039288367
241	0xbd4fc1d0	-0.050721943
242	0x3d06f797	0.032950964
243	0x3c459576	0.01205956
244	0x3c633b98	0.013869189
245	0xbac10cfc	-0.0014728601
246	0xbc7b7290	-0.015347138
247	0xbe2d0b57	-0.16898857
248	0xbc4a0277	-0.012329689
249	0xbbd4a590	-0.006489463
250	0x3d31de34	0.0434248
251	0xbb98d0ce	-0.0046635633
252	0xbd251d88	-0.040311366
253	0xbdd4f2c0	-0.103978634
254	0xbc2f6cb2	-0.010707067
255	0xbb8b8ce0	-0.004258737

edge.weight f4 [3, 128]
0	0x41170a03	9.439944
1	0x411a88cb	9.658397
2	0x41189470	9.53624
3	0x41167c03	9.405276
4	0x411b737b	9.715693
5	0x4118c272	9.547472
6	0x86311b5f	-3.331011e-35
7	0x409ae85d	4.8408647
8	0x41195b3f	9.584777
9	0x411b3ac4	9.701847
10	0x4116c146	9.422186
11	0x41192f8c	9.574108
12	0x99fd4f2f	-2.6191569e-23
13	0x9578f158	-5.0273588e-26
14	0xc0f83cea	-7.757436
15	0x411a6c88	9.651497
16	0x411ab1d9	9.66842
17	0x84c9e994	-4.746938e-36
18	0x411761b9	9.461358
19	0x411a8cdb	9.659389
20	0x41174810	9.455093
21	0x41178d52	9.472002
22	0x4118df1f	9.554473
23	0x411a75dc	9.653774
24	0x4118e940	9.556946
25	0x411a5b8f	9.647353
26	0x9589ab4a	-5.5604106e-26
27	0x4082986f	4.0811076
28	0x4119c766	9.611181
29	0x411a0f9a	9.628809
30	0x4118a344	9.53986
31	0x2091592d	2.4622967e-19
32	0x40c9c071	6.3047414
33	0x41182095	9.507955
34	0x4117e4ff	9.493407
35	0x411a67f1	9.650376
36	0x4117e1a2	9.492586
37	0x897bed47	-3.0324593e-33
38	0x411af4b8	9.684746
39	0x97c5a93d	-1.2773548e-24
40	0x0545acef	9.2946584e-36
41	0x411ac6d6	9.673544
42	0xc13d60ef	-11.836165
43	0x4118abff	9.541991
44	0x41186952	9.525713
45	0x4118d0c8	9.550972
46	0x4116a4fa	9.4152775
47	0x41175688	9.458626
48	0x4119ecad	9.620282
49	0x411963f3	9.586902
50	0x411a13f4	9.629871
51	0xc134ebb4	-11.307545
52	0x41174af8	9.455803
53	0x411722d3	9.446002
54	0x0be4e511	8.8167066e-32
55	0x411a73ec	9.653301
56	0x4118bc34	9.545948
57	0x4118b4ef	9.544173
58	0x4118ccec	9.55003
59	0x4117947f	9.473754
60	0x0a05c8df	6.441497e-33
61	0x411b2dc6	9.698675
62	0xc1115913	-9.084247
63	0x4098fa6c	4.780569
64	0x41175ec9	9.460641
65	0x40deff7e	6.968688
66	0x411a5834	9.646534
67	0x41170e30	9.440964
68	0x40c96f44	6.294832
69	0x411a4383	9.641482
70	0x411a717d	9.652707
71	0xc1471824	-12.443394
72	0x411a2483	9.633914
73	0x4100287d	8.009885
74	0x411b4318	9.70388
75	0x411816cb	9.505565
76	0x411875c2	9.528749
77	0x4119a5f5	9.603017
78	0x4118664f	9.524978
79	0x411a464b	9.642161
80	0xc08784d4	-4.2349644
81	0x41195947	9.584296
82	0x411ab87d	9.670041
83	0x40efba4f	7.4914927
84	0x411ae64b	9.681224
85	0x411a4e84	9.644169
86	0x41182aff	9.510497
87	0x41190a97	9.565085
88	0x4119a54a	9.602854
89	0x40f0f5d5	7.530009
90	0x411b22ec	9.696026
91	0x411a0802	9.626955
92	0x41170145	9.43781
93	0x41198141	9.594056
94	0x4118ec37	9.55767
95	0xc152beee	-13.171614
96	0x411708c6	9.439642
97	0x41177df4	9.46825
98	0x4118124e	9.504469
99	0x41196cc1	9.589051
100	0x4118a983	9.541385
101	0x4026179d	2.5951912
102	0x3f1d5ef9	0.6147304
103	0x41186fcf	9.527297
104	0x411a501f	9.644561
105	0xa8dce1f5	-2.45229e-14
106	0x4118fc94	9.561665
107	0x41181cbd	9.507016
108	0x41181051	9.5039835
109	0x41106469	9.024514
110	0x40b74b63	5.7279525
111	0x411a9f36	9.66387
112	0x41196a79	9.588494
113	0x14a76ca7	1.6905547e-26
114	0x4118c9ab	9.549235
115	0xb03433b8	-6.5557115e-10
116	0x4117ce11	9.487809
117	0x4118f665	9.560155
118	0x411a7b8d	9.655164
119	0x4118d477	9.551871
120	0xaebcea3a	-8.590857e-11
121	0x411a6c4c	9.65144
122	0x411a2fa3	9.63663
123	0x41195370	9.5828705
124	0xc11cd5e4	-9.802219
125	0x4118b640	9.544495
126	0x4118cc79	9.54992
127	0x41167039	9.402398
128	0xc1948210	-18.563507
129	0xc19612a9	-18.759111
130	0xc1964f1e	-18.788631
131	0xc195fc7b	-18.748281
132	0xc1965d0a	-18.79543
133	0xc1964ed6	-18.788494
134	0x0584328f	1.2431793e-35
135	0xc191e9e7	-18.23921
136	0xc1957942	-18.684208
137	0xc19637d7	-18.777266
138	0xc19582c6	-18.688854
139	0xc1961ecb	-18.765036
140	0x9c9f704c	-1.0550765e-21
141	0x172298ad	5.2537727e-25
142	0xc0fd960f	-7.9245677
143	0xc1965e3a	-18.79601
144	0xc1965da1	-18.795717
145	0x8635628b	-3.4114714e-35
146	0xc1957fd9	-18.687426
147	0xc19659b3	-18.793798
148	0xc1948db4	-18.569191
149	0xc19551ab	-18.664877
150	0xc19692e7	-18.82173
151	0xc1965d74	-18.795631
152	0xc195dedf	-18.733824
153	0xc1962869	-18.769732
154	0x94c0e5e5	-1.9477723e-26
155	0xc1915938	-18.168564
156	0xc1960586	-18.752697
157	0xc1966222	-18.797916
158	0xc196a4d8	-18.83049
159	0xa20e26df	-1.9265167e-18
160	0xc192cd44	-18.350227
161	0xc194b696	-18.589153
162	0xc195461b	-18.659231
163	0xc19617c8	-18.761612
164	0xc19526af	-18.643888
165	0x068aae00	5.21655e-35
166	0xc1961220	-18.75885
167	0x9902c4bb	-6.760572e-24
168	0x09be4591	4.5806256e-33
169	0xc19644e3	-18.783636
170	0xc1669eb5	-14.413747
171	0xc19618d7	-18.762129
172	0xc19656d1	-18.79239
173	0xc1967a9b	-18.809866
174	0xc195e4c7	-18.736708
175	0xc195a6a0	-18.70636
176	0xc19656f3	-18.792456
177	0xc1966ce2	-18.803165
178	0xc19695f1	-18.823214
179	0xc13fc8fa	-11.986567
180	0xc196c470	-18.845917
181	0xc196a7fd	-18.832026
182	0x8bfa1110	-9.632217e-32
183	0xc196895d	-18.817072
184	0xc1967c02	-18.81055
185	0xc1964b9e	-18.786922
186	0xc1952d5c	-18.647148
187	0xc195ed7b	-18.740957
188	0x0ba8a0cd	6.495319e-32
189	0xc1961301	-18.75928
190	0xc18063e3	-16.048773
191	0xc191cf45	-18.226206
192	0xc19646fb	-18.784658
193	0xc1937cb1	-18.435884
194	0xc1966135	-18.797464
195	0xc196cc80	-18.849854
196	0xc192c3e0	-18.345642
197	0xc1965744	-18.79261
198	0xc1966c53	-18.802893
199	0xc16a7e11	-14.655778
200	0xc1968d82	-18.819096
201	0xc194b63f	-18.588987
202	0xc19683f6	-18.814434
203	0xc1961d83	-18.76441
204	0xc19665cf	-18.799711
205	0xc196414a	-18.78188
206	0xc195c6de	-18.722103
207	0xc1966bf1	-18.802706
208	0xc088efb2	-4.2792597
209	0xc1953421	-18.650454
210	0xc196367f	-18.77661
211	0xc1941188	-18.50856
212	0xc19638a4	-18.777657
213	0xc1960b07	-18.755384
214	0xc1958a78	-18.692612
215	0xc1969ed8	-18.82756
216	0xc1964e28	-18.788162
217	0xc1941b9c	-18.513481
218	0xc195d6fb	-18.72997
219	0xc19652e6	-18.790478
220	0xc1955c9b	-18.670218
221	0xc196665e	-18.799984
222	0xc1969a63	-18.825384
223	0xc174034c	-15.250805
224	0xc1968e01	-18.819338
225	0xc1967e89	-18.811785
226	0xc1966d8b	-18.803488
227	0xc196eb25	-18.864817
228	0xc1963265	-18.774607
229	0xc18ea381	-17.829836
230	0xc18b2e07	-17.397474
231	0xc1965707	-18.792494
232	0xc196622a	-18.797932
233	0xaab32812	-3.1824592e-13
234	0xc19666ad	-18.800135
235	0xc196b25c	-18.83709
236	0xc1960a43	-18.75501
237	0xc195e984	-18.739021
238	0xc19257a9	-18.292803
239	0xc1960141	-18.750612
240	0xc1966d90	-18.803497
241	0xbaf67d68	-0.0018805685
242	0xc1960195	-18.750772
243	0xb012cb6d	-5.3403576e-10
244	0xc1964ac2	-18.786503
245	0xc1967146	-18.80531
246	0xc195d479	-18.728746
247	0xc196890a	-18.816914
248	0xae9fd7ea	-7.268837e-11
249	0xc1967335	-18.806253
250	0xc1965256	-18.790203
251	0xc1962a0f	-18.770536
252	0xc17df97f	-15.873412
253	0xc1967de3	-18.811468
254	0xc1957fd3	-18.687414
255	0xc19645f9	-18.784166

edge.bias f4 [3]
0	0x4058c09d	3.3867562
1	0xc11af219	-9.684106
2	0x406d7d4a	3.710772
